best_model.pt (torch, 82485 bytes, 16 tensors)

conv1.lin_l.weight f4 [128, 6]
000000 3e cc 99 bd 8f 91 a4 bd e9 02 3c be b2 e5 99 be
       -0.07509659 -0.080355756 -0.18360485 -0.30058056
000010 db e3 93 bd 65 76 8e be e5 c9 30 3d 46 9d ae 3e
       -0.07221194 -0.27824703 0.04316129 0.34104365
000020 9b d8 30 be 8a da d1 3e cb 10 9f be 21 2a 99 3e
       -0.17270128 0.40987045 -0.310675 0.29914954
000030 2f e2 87 be fc 15 4f be ba db 86 be 1e a9 4f 3e
       -0.26539752 -0.2022323 -0.26339513 0.20279357
000040 c7 93 7a 3e 00 0a 3a be e5 36 e1 be c2 1c 9c be
       0.24470435 -0.18167877 -0.43987194 -0.3049069
000050 d5 b9 1d 3e a2 06 0d be 5f ad 9d be c4 57 d6 bc
       0.1540292 -0.13772061 -0.30796334 -0.026164897
000060 b9 33 a4 bd ff 82 02 be 7a d6 b7 3e 7c 44 a2 3e
       -0.08017678 -0.12745284 0.3590582 0.31692874
000070 a0 bc d9 ba 52 d3 32 3e 1a d6 49 3e 4b 0d 94 3e
       -0.0016612001 0.17463425 0.1971058 0.28916392
000080 5d fb 3f be 5e 9a 25 be fc fb 9a 3e 63 07 86 3e
       -0.18748231 -0.16172168 0.30270374 0.2617751
000090 c7 bd 2b be 9f d7 09 be dc 0d d0 3e 58 8f 8e be
       -0.16771613 -0.13461159 0.40635574 -0.27843738
0000a0 72 23 c0 3e 56 3e 9e be 79 48 3a 3e a4 22 14 be
       0.37527043 -0.30906934 0.18191709 -0.1446634
0000b0 12 b1 b3 bc 2c 68 6b 3b 7c 05 56 bd f9 42 20 3e
       -0.02193502 0.0035920246 -0.052251324 0.15650548
0000c0 cb f3 01 3e 4d e2 9d be 93 f5 ac 3d 70 eb a3 be
       0.12690656 -0.30836716 0.08445277 -0.32015562
0000d0 0c 9d 62 3d 8c 6a ca bd 53 57 9a be 32 b2 69 bd
       0.055325553 -0.098836035 -0.30144748 -0.057054706
0000e0 d9 af d6 bd 21 79 50 3d d2 61 79 3e 67 4b 1c 3e
       -0.10482759 0.050896768 0.24353722 0.15263139
0000f0 64 9b 29 be 8c f9 dd be 73 e2 53 3d 8e e3 6c 3d
       -0.16563183 -0.43354452 0.05172963 0.0578342
000100 fc f3 b5 be 3c 96 a5 3e 51 e4 9e 3e c3 d2 66 be
       -0.35537708 0.32341182 0.31033567 -0.22541337
000110 70 84 6a 3e 02 ab 91 3d a5 cc c0 be a8 0b c3 bd
       0.22902083 0.07112695 -0.3765613 -0.09523708
000120 51 93 48 bd 21 9b cd be bb f5 0a 3e 23 47 5d be
       -0.048968617 -0.40157416 0.13570301 -0.21609168
000130 c2 37 39 bd 99 10 e4 3d 66 b2 a3 3d 83 81 8f be
       -0.04521919 0.11135978 0.07993011 -0.28028497
000140 49 d1 70 3e 68 c9 11 be 73 8f d9 bd 3b 8e ae 3e
       0.23517336 -0.14236987 -0.10623064 0.34092888
000150 0e 0e 59 be 08 5a e3 be 76 d7 24 3e fa 3b 4e 3d
       -0.21196768 -0.44404626 0.16097817 0.050350167
000160 41 83 a4 3c 48 4f ba be e9 3c 6c 3e b9 a8 c9 3e
       0.020082118 -0.36388612 0.2307011 0.39386538
000170 4f 4b 72 be ce 0c b2 3e 12 5d 23 be 47 7a c9 be
       -0.2366154 0.34775394 -0.15953472 -0.39351103
000180 1b fb c5 3e 3e 9f 4f be a7 8d 8a be d4 4d 70 be
       0.3866814 -0.2027559 -0.27061197 -0.23467189
000190 33 ae dd 3d 8e ce e1 3e ea dc c6 3d 6b f6 3c be
       0.108242415 0.441029 0.09710105 -0.18453376
0001a0 92 9e b3 3e 07 e0 02 3e 57 74 66 3e 33 ae a7 3e
       0.35081917 0.12780772 0.22505318 0.3275009
0001b0 fc 2d 22 3e 2a 72 99 3d ee e3 90 3d 0a ef 9c 3d
       0.15837854 0.07492478 0.07074724 0.076627806
0001c0 e9 d9 8d be 4b 40 57 be 03 0c 5a 3e c8 2b c3 be
       -0.27705315 -0.2102062 0.21293645 -0.3811934
0001d0 e8 78 56 3e 85 d5 2b 3e e6 ef 70 3c 76 38 77 3e
       0.2094456 0.1678067 0.014705634 0.24142632
0001e0 c7 fb 3c be 8d 81 a5 3e 64 7f e4 3d cd 01 03 be
       -0.1845542 0.32325402 0.1115711 -0.12793656
0001f0 8d 59 7c bd 34 b4 1a be a9 20 e1 3e 42 43 b2 bd
       -0.06160884 -0.15107805 0.4397023 -0.08704235
000200 9b 65 23 3e 68 d7 c9 3e c0 cc 75 3e 6e af b1 3e
       0.15956728 0.39422154 0.24003887 0.34704155
000210 29 92 95 3e ac 8f 24 3e 24 42 73 3c df 23 5f 3e
       0.29213074 0.16070431 0.014847312 0.21791027
000220 b5 79 2a be 88 eb bd 3b b8 3c 96 3d d6 2b 4c be
       -0.1664799 0.0057959 0.073358 -0.19938597
000230 38 bb 6a 3e 5e 44 3c 3e c0 18 d7 be a0 ab b0 be
       0.22922981 0.18385455 -0.4201107 -0.3450594
000240 d1 01 a4 bd 04 f8 b0 be 01 88 49 be f8 d8 d7 3e
       -0.08008159 -0.3456422 -0.19680788 0.42157722
000250 50 cb ac 3e d4 74 32 bd a7 c1 cf be 55 ff 8e 3e
       0.33748865 -0.043568447 -0.40577433 0.27929178
000260 f6 6c 9c be fc f7 97 be 5e cc 79 3d 2a 67 01 be
       -0.3055188 -0.29681385 0.060985915 -0.1263701
000270 54 80 22 be 4d 6f fa 3d d1 a6 91 be 46 36 5e 3d
       -0.15869266 0.1222826 -0.28447583 0.054250978
000280 41 a7 89 3e 60 06 56 3e 42 53 0d 3e a5 0e 24 3e
       0.26885417 0.2090087 0.13801292 0.16021211
000290 28 40 81 bd 1b 98 21 be 1e 37 54 3d fb 5c a1 3e
       -0.06311065 -0.1578068 0.051810376 0.3151625
0002a0 43 61 e4 3e aa 13 e8 bd 8a 41 9a 3d 01 d1 33 3e
       0.44605455 -0.113318756 0.07532032 0.17560197
0002b0 b3 01 87 be 8c 2e 34 3e 63 54 29 3e c1 3b e0 3e
       -0.26368484 0.17595881 0.16536097 0.4379559
0002c0 b9 38 bc be 92 b8 75 be 3e b0 07 3e 70 ec d7 3d
       -0.36762026 -0.23996189 0.13250825 0.10543144
0002d0 c7 3b cd 3d 5b d3 c0 3c 61 c0 e0 3e a6 a4 b3 3e
       0.10021167 0.023538282 0.43896773 0.35086554
0002e0 1c 24 49 be d1 2e 2e 3e 41 ed 79 3e 06 88 c8 3d
       -0.19642681 0.17010047 0.24406911 0.097915694
0002f0 1c ad 6c be b7 f0 62 3e 50 75 c4 3d ec 1d 3c be
       -0.23112911 0.22162138 0.09592688 -0.1837079
000300 ce 81 3a 3e 96 ae d2 be 55 5f 54 be c2 ab 80 be
       0.18213579 -0.41148823 -0.20739491 -0.2513104
000310 2a d9 38 bd 61 c7 24 be 25 55 b8 be 41 3c 76 be
       -0.04512898 -0.16091682 -0.3600246 -0.24046423
000320 e9 b5 8d be 86 d9 3a 3d 17 f2 68 be c9 16 7d 3e
       -0.2767785 0.045617603 -0.227486 0.24715723
000330 f3 e3 1b 3e cb 9d 8a be 52 c9 26 3e d5 bf 1b be
       0.15223674 -0.2707351 0.16287735 -0.15209897
000340 8d b5 ce be 40 7c 9a be 1a 00 92 bd 50 29 df bd
       -0.40372887 -0.3017292 -0.071289256 -0.108965516
000350 4e cd be be 7d 85 90 be 74 84 bc 3e a6 22 b2 be
       -0.3726601 -0.28226843 0.36819804 -0.3479206
000360 ba 2e 8e be a9 f6 75 bd 89 92 b0 be ee 6b 98 bc
       -0.27770025 -0.060049687 -0.34486797 -0.018606152
000370 c7 5f 46 be 7e 7e ec bc 16 83 80 be 48 b6 63 3e
       -0.19372474 -0.02886891 -0.2510001 0.22237504
000380 83 f1 a5 3e 1f 79 4c be ef d8 3b bd bd 20 d9 be
       0.3241082 -0.19968079 -0.04586118 -0.4240779
000390 ed aa 92 be 89 66 05 3e 11 39 31 3e 56 77 9a 3d
       -0.2864603 0.13027395 0.17306925 0.07542293
0003a0 84 a5 26 3e 26 fd a5 3d 41 d9 73 be 52 d8 bc 3e
       0.16274077 0.08104925 -0.23813345 0.3688379
0003b0 d6 ed 6d 3d d8 fd 34 bb 8a 4c 7c 3e 6b 9c 6e 3d
       0.058088146 -0.0027617123 0.24638572 0.05825464
0003c0 77 f8 5d be ca 88 71 3e 5e 78 ea 3d b8 62 ce be
       -0.21676813 0.23587337 0.114487395 -0.4030969
0003d0 91 73 04 be 36 1f 7e be 74 d7 78 3e 56 ce af be
       -0.1293471 -0.24816594 0.24300939 -0.3433711
0003e0 9e 3e 85 be 38 88 24 be 2d 59 c2 3e c5 ba 18 be
       -0.26024336 -0.16067588 0.3795866 -0.14914997
0003f0 90 e6 a2 3e 38 04 af 3d 9e b8 da be c3 ab b9 be
       0.3181653 0.085457265 -0.42718977 -0.36263856

conv1.lin_l.bias f4 [128]
000000 a8 bc bf 3d 74 81 97 3e d3 65 a8 be d7 50 8a bc
       0.09362155 0.29590952 -0.32890186 -0.01688425
000010 ff 77 94 3e 6c 2a 7a bc ea 4a 76 3c ab 2b a2 3e
       0.289978 -0.015268903 0.015032509 0.3167394
000020 dc b3 84 be 97 54 9a bd d6 18 41 be 01 6f 98 3b
       -0.25918472 -0.075356655 -0.1885713 0.0046519046
000030 37 94 c4 3d 82 ff 38 3e 14 0b b1 bc 6a 45 75 be
       0.09598582 0.18066218 -0.021611728 -0.2395226
000040 96 a3 74 bd ef 2c 9e 3e d6 48 66 3e d1 fb 75 be
       -0.05972632 0.30893657 0.22488722 -0.24021842
000050 fb e9 4a 3e 0a 9c 81 bc ba 4f 9c 3b 1c ad 1c bd
       0.19815819 -0.015821476 0.0047702463 -0.038251027
000060 8e b6 58 3c cc 58 97 be ee 9c 0d be d2 08 08 3e
       0.013227118 -0.29559934 -0.13829395 0.13284615
000070 45 ee 4f 3b 81 ab 23 3e 09 ef 98 3e 3d 5c ed ba
       0.0031727713 0.15983392 0.2986987 -0.0018109154
000080 68 1c 91 bc 3f 8e cf 3d 29 c6 10 3e d9 c8 64 3d
       -0.01771374 0.10134553 0.14138092 0.055855606
000090 15 7d 40 3e 54 70 93 be f4 10 35 3b a0 af b4 3d
       0.18797715 -0.28796637 0.0027628513 0.0882256
0000a0 9c fe 9e bd 95 a6 94 be f7 58 dc 3c 02 f1 47 3e
       -0.07763407 -0.29033342 0.02689789 0.19525531
0000b0 61 76 dd 3d e2 a7 7d 3e ad 9d 59 bc 28 74 63 bd
       0.108135946 0.24771073 -0.013282222 -0.055530697
0000c0 70 76 f1 3c 14 21 45 3e ab b5 16 3e e9 d4 30 be
       0.02947542 0.192509 0.14717738 -0.17268719
0000d0 a6 60 9d be 3e 90 cc bb 7d 80 79 be c9 00 99 bd
       -0.307378 -0.006242781 -0.2436542 -0.07470853
0000e0 63 bc 9b 3e 63 0b 3a 3e b1 c1 b5 bd 28 c2 95 3a
       0.30417165 0.18168406 -0.08874834 0.0011425661
0000f0 2a f3 56 be 96 17 7d be e4 94 24 3b 5a 9a 28 be
       -0.20991197 -0.24716029 0.002511316 -0.1646513
000100 a1 f9 11 3e cc 2f 9b 3e db e6 9a bb 18 48 85 bc
       0.14255382 0.30309904 -0.004727227 -0.016269729
000110 c1 c3 9a 3e a7 f7 13 bd 1e 64 6d bb 3c 91 91 be
       0.30227473 -0.03612485 -0.0036223005 -0.28431118
000120 b2 bb 5a 3c d4 3d 85 3e ca 0b 9b 3e fd e9 74 3e
       0.013350414 0.26023734 0.30282432 0.23917384
000130 80 8e 86 3c 5b 1c 80 3c ca e7 54 bd 92 6e 40 3e
       0.016425371 0.015638521 -0.051978864 0.18792179
000140 63 3a 85 3c 94 70 9c be bd c1 84 3e 7e e4 a2 be
       0.016263193 -0.3055464 0.2592906 -0.3181495
000150 28 3d 29 3e 91 a9 28 3c 5d 99 64 be 51 52 ad 3d
       0.16527236 0.010294334 -0.22324128 0.08462966
000160 06 ab 8e 3d eb ef 60 3e a1 b5 4b 3e f1 1b 7c bc
       0.06966214 0.21966521 0.19893505 -0.015387521
000170 31 44 78 3d b7 9d 87 be 6b 22 a5 bd 12 37 a8 be
       0.060611907 -0.26487514 -0.08063205 -0.32854515
000180 60 e4 4f 3e 10 1d 8a bc dd 39 52 3e 2c 72 8a be
       0.20301962 -0.016859561 0.20529886 -0.2704023
000190 91 91 c3 bd 53 40 49 be a5 be 9b 3d 13 d8 26 be
       -0.09549249 -0.19653444 0.07604722 -0.16293363
0001a0 8c cc 38 bc 6e da e3 3d 41 7e 5b be 1c df 0c bc
       -0.0112792365 0.111256465 -0.21434881 -0.008598115
0001b0 50 48 ca bd cf 3a 8a 3c 74 d7 81 3c 3b f7 2b 3e
       -0.09877074 0.016873745 0.015849806 0.1679353
0001c0 92 bd 4f bc 82 3c 9d bd 70 52 24 bc d4 90 9f be
       -0.012679474 -0.076775566 -0.01002942 -0.31165183
0001d0 4f 85 a3 3e ac b8 9b bb 2a d2 bf 3c f5 2d 3d be
       0.31937644 -0.004752239 0.023415644 -0.18474562
0001e0 1a 0f 52 bd 57 04 4f 3e 9d 50 43 3e 00 88 a3 3b
       -0.051283933 0.202165 0.1907372 0.0049905777
0001f0 b2 30 a3 bd 21 91 92 be 68 c3 6f be 12 a1 a4 3d
       -0.07968272 -0.2862635 -0.23414385 0.08038534

conv1.lin_r.weight f4 [128, 6]
000000 b5 e8 3b be 70 3e b0 3e d1 00 7a 3c 58 8d 69 3e
       -0.1835049 0.34422636 0.015258984 0.22807825
000010 fd 67 80 3e fa 92 89 bd 36 9f 9e be 4b c0 0c be
       0.25079337 -0.06717487 -0.30980843 -0.13745229
000020 48 88 d8 be a5 1c c2 be 98 03 0e bd db d9 d2 3c
       -0.42291474 -0.3791248 -0.034671396 0.025738647
000030 cb b3 8b 3e 65 92 d0 bd ca 1f 34 3c 20 61 92 3e
       0.2728561 -0.101841725 0.010993907 0.28589725
000040 c3 e0 9b 3d 15 c8 47 3e 6d fc 8d be f3 d8 29 be
       0.07611229 0.19509919 -0.27731648 -0.16586666
000050 d8 b5 5b 3e 79 66 d6 be f6 af e0 bd 16 89 d0 3e
       0.21456087 -0.41875055 -0.10971062 0.40729588
000060 b8 fc b4 3e 53 24 e3 bc 5e 13 b4 bd ed 57 a2 be
       0.3534906 -0.027727282 -0.087927565 -0.31707707
000070 21 66 80 3d 65 af e2 3e e9 9d 2a be dd 60 e9 be
       0.062694795 0.4427444 -0.166618 -0.45581713
000080 55 5d d0 be cb c6 b1 be 73 63 8e be 33 54 16 bc
       -0.40696207 -0.3472198 -0.2781025 -0.009175348
000090 d2 cf c6 be 99 60 db be 80 9a 01 be 40 9b 92 3e
       -0.3883043 -0.42847136 -0.12656593 0.2863407
0000a0 1e 45 f2 bd e3 7d 8c be 24 01 98 be 20 c6 06 be
       -0.11829589 -0.27439794 -0.2968837 -0.13161516
0000b0 18 31 c7 be 84 31 d2 3e 03 fc 60 be 09 0f c4 3d
       -0.38904643 0.41053402 -0.21971135 0.0957318
0000c0 09 9a 32 bd 40 2e 71 be 81 29 ab 3d 7f e5 f8 3d
       -0.04360393 -0.23552799 0.083575256 0.12153148
0000d0 f6 69 62 3e f4 b7 9f 3e e0 76 d2 3e 22 22 f7 bd
       0.22110733 0.31195033 0.4110632 -0.12067057
0000e0 b8 d2 20 be bf 8f ab bd 7e 5b 0b 3e a2 19 a1 be
       -0.15705383 -0.08377027 0.1360912 -0.3146487
0000f0 8a e6 a5 3e fe 7b 06 be 70 18 a3 be 90 4f e0 bd
       0.3240245 -0.13133237 -0.31854582 -0.10952675
000100 2c d2 5f 3e 63 7a 7c 3e 57 88 b0 3e c8 cd 17 3e
       0.21857518 0.24656062 0.3447902 0.14824593
000110 12 24 a4 bb d8 de b8 be 3e ff 0d be f7 0f 10 3d
       -0.0050091827 -0.36107516 -0.13866898 0.035171475
000120 f9 2d 1a be fc 95 96 3e b4 cc aa 3d c9 f7 88 be
       -0.150566 0.29411304 0.08339825 -0.26751545
000130 04 84 af 3d 98 23 fa bd 9e 03 41 3d 37 82 57 3e
       0.08570102 -0.1221382 0.04712259 0.21045767
000140 37 6b 45 3e e3 1b d7 be 06 2d 35 be 0a f0 4a bd
       0.1927918 -0.42013463 -0.17692956 -0.049545325
000150 d2 01 4a be 5c bb b3 3e d2 ae 81 3e cc 0d 63 3d
       -0.19727257 0.3510388 0.2532869 0.05543308
000160 91 fd 29 3e 38 65 cb bd 63 ad 6a 3e 34 3f a0 be
       0.16600634 -0.09931415 0.22917704 -0.3129822
000170 ef 79 8a be 78 33 9b be 1d bb 86 be 3d 55 1a be
       -0.27046153 -0.30312705 -0.2631463 -0.15071578
000180 b5 c0 87 3b d8 f4 64 3d 1a 6c 26 3e 37 66 51 be
       0.0041428455 0.055897564 0.16252175 -0.20449148
000190 b0 57 da 3d b1 69 68 3e ab a3 6b be b8 54 11 3e
       0.10661256 0.22696568 -0.23011653 0.14192474
0001a0 ec d9 9d 3e bf 47 41 be 71 cc 92 3e c6 fa bb 3d
       0.30830324 -0.18875025 0.286716 0.091786906
0001b0 63 60 49 be 2f 7e 35 bd a1 a9 a8 be 6a 35 be 3c
       -0.19665675 -0.04430979 -0.32941917 0.02321883
0001c0 84 66 cb 3e 69 75 36 3d 1e 6b a0 bd 1d 2d 79 3e
       0.3972665 0.044545565 -0.07832931 0.24333616
0001d0 5c 13 0e 3e 0a d3 2d be 19 60 85 bd 43 10 57 be
       0.13874573 -0.16975036 -0.0651247 -0.21002297
0001e0 1b b8 5c bd e2 61 a7 3e fd ac a3 3e 0a 1e 06 bd
       -0.053886514 0.32691866 0.31967917 -0.03274349
0001f0 53 1c d5 3e 9e e2 41 bc 17 ad bf bd 89 ab 71 3c
       0.41623172 -0.011833815 -0.09359186 0.01475037
000200 3d 50 50 be b8 06 ca be 4d 31 32 3e dd 04 fc 3c
       -0.20343108 -0.3945825 0.1740162 0.030764038
000210 42 3e bb be 9d 26 c6 3d 3c eb fa 3d 5d e8 cd 3e
       -0.36570936 0.09675334 0.12251899 0.40216342
000220 a4 b0 70 be 41 03 1f be f2 55 4f 3d 80 ad 4c 3c
       -0.23504883 -0.15528585 0.050619073 0.0124925375
000230 bc 99 fb 3d aa 06 bb 3e 98 ac 00 3e 65 49 d1 3e
       0.12285182 0.36528522 0.1256584 0.40876308
000240 20 15 9e 3e 32 3d e6 bc 0a a5 30 3e 06 82 30 3e
       0.30875492 -0.028105352 0.17250457 0.172371
000250 2e fb 8b be 8c 3d c0 bd 73 6c 1d be be d2 19 be
       -0.27340072 -0.09386739 -0.15373401 -0.15021798
000260 0a f2 91 be 4c b8 0c 3e 5c 36 50 be f6 b1 a7 be
       -0.28504974 0.13742179 -0.20333236 -0.3275296
000270 d6 cc f7 3d bd d4 70 be 51 bc d5 3e 93 9d ac be
       0.12099616 -0.23518653 0.41745237 -0.3371397
000280 da eb 92 3e 7c 24 ba be 7c 79 b0 be 0e d1 17 3e
       0.28695565 -0.3635596 -0.34467685 0.14825842
000290 48 7a 37 3c 12 36 ce 3d 97 0b b6 3e c4 0b 7d be
       0.011198588 0.10068907 0.35555717 -0.2471152
0002a0 4c 4d b6 bd 74 91 e2 bc 17 79 26 3d d0 a5 43 3e
       -0.08901462 -0.027657248 0.040642824 0.19106221
0002b0 76 0d 82 be b2 4b 95 be 8f 65 9d bd 2d b4 f7 3d
       -0.25400895 -0.29159313 -0.076853864 0.12094913
0002c0 7f e9 7e 3e 8a 3b 95 bd 47 c6 2d be e9 0f 92 3e
       0.24893759 -0.07286747 -0.16970168 0.28527763
0002d0 03 a7 4d 3e cb 55 ca be 8f 5c b1 bc 04 7b 2f be
       0.20083241 -0.3951858 -0.02165058 -0.1713677
0002e0 b0 5b 95 3e 7c ff 23 3e 0a c6 93 be f7 e7 65 be
       0.29171515 0.16015428 -0.2886203 -0.22451769
0002f0 e4 60 fd 3b 5c 89 ac be f3 fa 21 3e 78 44 85 be
       0.0077324975 -0.33698547 0.15818386 -0.260288
000300 28 3b 2a bc 03 cf ad 3e 9a 9a 63 be a8 48 2d 3e
       -0.0103900805 0.33947 -0.22226945 0.16922247
000310 24 d7 85 3d 52 10 59 3e 49 ea f9 bd 64 72 aa 3e
       0.065351754 0.21197632 -0.122028895 0.33290398
000320 dc 00 91 3e 06 fa a0 3e ed 15 27 be 59 55 2c bd
       0.28320968 0.31440753 -0.16316958 -0.04207358
000330 b4 3e ee 3d 04 b1 55 3e 35 54 0c 3e 1f e4 94 be
       0.116330534 0.20868307 0.13703997 -0.29080293
000340 b7 72 4f 3e fb 17 4f 3e b2 2b 10 be 45 1c 65 be
       0.20258604 0.20223992 -0.14079168 -0.22374065
000350 14 ec 73 3e 18 4c 89 be 2b ea 47 be 52 ab 44 be
       0.23820525 -0.26815867 -0.19522922 -0.19205979
000360 16 41 26 3e 4a 41 39 3e 95 1e 01 3e da b2 b8 3e
       0.16235766 0.18091312 0.12609322 0.36073953
000370 bf 52 85 3e c5 33 26 be fa 88 bd 3e d4 84 81 be
       0.26039693 -0.16230686 0.37018567 -0.25296652
000380 1e 15 9f be 0a fa af be e5 5a 7a be f6 f4 8c 3e
       -0.310708 -0.34370452 -0.24448736 0.2753064
000390 ff e4 1d be 99 52 3f be ac a3 f2 bd 0b a6 76 3e
       -0.15419386 -0.18683852 -0.11847624 0.24086778
0003a0 cf f2 8c 3e a8 77 ad bc aa 6e 97 be 28 d3 be bd
       0.27528998 -0.02117522 -0.29576617 -0.093176186
0003b0 52 14 f0 3d 91 8d 44 be 0d a4 da 3d 48 98 2f be
       0.11722626 -0.19194628 0.106758215 -0.17147934
0003c0 f7 cd 09 be 0e 8a 58 bd ea ad 83 3e 40 1e 64 3d
       -0.13457476 -0.052866034 0.25718623 0.05569291
0003d0 ed 28 ab be 30 bd da be 40 65 91 be 68 32 bd 3d
       -0.3342966 -0.42722464 -0.2839756 0.0923813
0003e0 7d 0f 5e 3d 9e c5 c8 3d c5 58 05 bd dd 8e bf be
       0.05421399 0.098033175 -0.03255536 -0.37413684
0003f0 69 f8 a5 3e 70 69 a5 3c 50 da d6 3d ca 94 ae be
       0.32416084 0.020191878 0.104908586 -0.34097892

conv2.lin_l.weight f4 [64, 128]
000000 00 d0 4d bc 63 8e 5f 3d 85 b1 2f bc 96 80 8d bd
       -0.012561798 0.05457915 -0.010723476 -0.069092914
000010 26 cc 08 bd ee 16 1c 3e 68 b0 cf bd 96 47 20 bd
       -0.033397816 0.15243122 -0.10141069 -0.03913077
000020 5a c7 41 3d 72 26 01 bc b0 23 84 bd 34 a2 83 3d
       0.047309257 -0.007882701 -0.06452119 0.06427422
000030 bc ee 8f 3c 2f 04 b0 3d 5e 7f 10 3d 4e b2 a6 3d
       0.017569892 0.08594548 0.035277717 0.08139478
000040 27 51 2d 3d e7 64 5f bc 9c 1b a4 3d 15 4c 69 3d
       0.04231372 -0.013634897 0.080130786 0.056957323
000050 f6 a9 c6 3d 4b 66 86 3d 05 a7 e7 3d e6 e1 55 3d
       0.09700386 0.065624796 0.11311153 0.052217387
000060 38 76 7a bd ac 2a 96 3a 12 ac 77 3d ad 7b 3a 3d
       -0.0611479 0.0011456809 0.060466833 0.045528103
000070 40 4b bf bd 7a 9e b4 3d 68 bb 92 3c 7d 53 65 3c
       -0.09340525 0.088192895 0.017911628 0.013996956
000080 d1 d6 52 bc c2 83 dd 3d 2f 9b 59 3d dc 81 08 bb
       -0.012868599 0.108161464 0.05312651 -0.0020829355
000090 e8 c3 f0 3d f2 99 2a 3d 3b 54 8d 3b e1 ca 83 bc
       0.11756116 0.04165072 0.0043130196 -0.016087951
0000a0 f4 c4 94 3d 0d 94 a8 bc 86 bc a2 3d f5 a9 10 3d
       0.07264128 -0.020578409 0.07946114 0.035318334
0000b0 d6 d1 68 3d 3d 93 96 3d 46 7f 08 3c 0b 38 c2 3d
       0.05684074 0.07352302 0.008331126 0.094833456
0000c0 4e a1 02 3e 6f a8 0c 3d 32 3a 5e 3d ee be 1b 3b
       0.12756845 0.03434032 0.054254718 0.0023764926
0000d0 52 f1 fd 3d 5e 3e 8a 3c d8 ca 3e 3d 0c 3a 91 bd
       0.12399544 0.016875442 0.046580166 -0.0709115
0000e0 af cf 9a 3c e5 52 d1 3d 6f 3b e7 3b 54 44 82 3c
       0.01889786 0.10220889 0.0070566456 0.015901722
0000f0 a6 90 72 bd de 63 2a 3c 08 3c 0d 3d 2a 38 01 bd
       -0.05921998 0.010399787 0.03448108 -0.031547703
000100 b5 6f ea 3d 42 fc 6d 3d a8 02 ce 3c 05 30 5b 3d
       0.11447088 0.0581019 0.025147751 0.053512592
000110 4f 79 1b 3d 74 ea 7d 3c 98 6b 1b 3e 20 b6 00 3d
       0.037957486 0.0154977925 0.15177763 0.031423688
000120 88 2e ca bc 1b 1f de bc 0b a1 ab 3b ea 9b d8 3d
       -0.024680391 -0.027114442 0.0052377037 0.10576613
000130 91 96 ef bc 9f 33 9a 3d 89 b1 79 bd 29 9d 41 bd
       -0.0292466 0.07529377 -0.060960326 -0.04726902
000140 0f 6a 82 3d f4 9f e2 3c 4e a7 f1 bd 54 df 13 3e
       0.06367885 0.027664162 -0.11799489 0.14440662
000150 2c 64 3d 3c fe 8a dd 3d 86 e6 3f 3d 3b ea c8 bd
       0.011559527 0.10817526 0.046850704 -0.09810301
000160 4b d0 a0 bd dc 3a 67 3d 82 a1 ec 3b ce 30 0c bd
       -0.07852229 0.056452617 0.0072214017 -0.03422623
000170 05 46 a3 bd 3d 31 a4 3d 49 c6 8c 3d 3a 4a bb bd
       -0.079723395 0.08017204 0.068737574 -0.09145017
000180 2a 68 3e 3c 36 14 94 bd b7 bc 33 bd 60 e6 11 3e
       0.011621514 -0.072304174 -0.043881144 0.14248037
000190 0e 97 f8 bd 8b 66 a4 3d 0b 79 16 bd 61 0b b1 3b
       -0.121381864 0.08027371 -0.03673653 0.005402968
0001a0 c3 d4 b9 3c 59 b8 67 bc 3e c9 c4 bd 1b 27 16 3d
       0.02268446 -0.014143073 -0.096086964 0.036658388
0001b0 e8 34 a9 3d 78 85 02 3d 80 2d e4 ba 41 e2 f5 3c
       0.08262044 0.031865567 -0.001740858 0.030015113
0001c0 68 05 2c bd af 44 07 3d a4 27 e5 3d e0 c7 f4 3d
       -0.041997343 0.033024486 0.111892015 0.11952186
0001d0 a8 94 67 bd f2 d8 3b bd 69 bc 4a bc 67 05 e1 bc
       -0.056538254 -0.045861192 -0.012374022 -0.027468396
0001e0 be 33 8d 3d b2 50 c1 bd 35 70 c5 bc 9f 3a cc 3c
       0.06894635 -0.094392195 -0.024101356 0.024930296
0001f0 ca f2 a0 bd 90 e7 74 3d 05 2e 3d bd 82 a4 a8 3d
       -0.07858808 0.059791148 -0.046186466 0.082345024
000200 71 3e 6c bd 88 3c 78 bd a8 f3 9c bb 65 cf 5b 3d
       -0.057676736 -0.060604602 -0.0047897883 0.053664584
000210 c5 66 77 bc 10 12 dc bc e0 fe 61 3d a1 4e be 3d
       -0.015100186 -0.026864082 0.05517471 0.09292341
000220 6d 77 01 3e 62 4b 56 bd bb c7 ae 3b 84 24 1e 3d
       0.12643214 -0.052317984 0.0053338683 0.038609043
000230 b7 9e 5c bd 98 ac 74 bd c2 39 d4 bc 6f 84 02 be
       -0.0538623 -0.05973491 -0.025906447 -0.12745832
000240 87 19 95 bd 5d ec db bd 58 43 21 bc d6 01 e6 bd
       -0.072802596 -0.10738442 -0.009842716 -0.11230819
000250 09 c5 40 3c f2 1b d4 bd 62 d3 d3 bb 7a 64 21 3d
       0.011765727 -0.10356893 -0.006464408 0.039402463
000260 bc 5c 0e bb 52 6a b1 bd 7c 55 42 bd 11 5f 10 3d
       -0.0021722754 -0.08662857 -0.047444806 0.035246912
000270 cd 8e 0f bd 50 41 6b bd ff 4b 5f bc 5e a5 51 bd
       -0.035048295 -0.057435334 -0.013628959 -0.051183097
000280 79 e4 46 bd fc 93 9b 3b 11 7d c6 bd 19 24 1f bd
       -0.048557732 0.0047478657 -0.09691823 -0.038852785
000290 b3 b1 de bd b3 7f 53 bd 65 57 9c bd f8 b9 08 bc
       -0.10873737 -0.051635455 -0.07633857 -0.00834512
0002a0 22 e4 3e bd 8c be c3 bd f2 11 8c 3c c7 f9 ff bd
       -0.046604283 -0.09557828 0.0170984 -0.12498813
0002b0 7d 4a 94 bb 49 47 0c be 74 36 2f bd fc af 37 bb
       -0.0045254813 -0.13699068 -0.04277654 -0.002802848
0002c0 28 a7 04 bd 3d 15 e1 bd 3b a5 9c bd 6f 65 61 3d
       -0.032385975 -0.10990379 -0.07648703 0.055028375
0002d0 b8 27 bd bd 77 e5 71 3d d3 f8 81 bd ed 58 75 3d
       -0.092360914 0.059056725 -0.063462876 0.05989926
0002e0 48 01 af bb e2 22 32 bc fc 66 0e bd 83 0b 38 3c
       -0.005340729 -0.0108725745 -0.034766182 0.011233213
0002f0 80 55 f2 3d 3e 79 a8 bd e8 79 f8 bd 62 f7 08 bd
       0.11832714 -0.0822625 -0.12132627 -0.033439048
000300 76 ce cf 3b e6 26 05 bd e6 28 bf bb 40 f8 5d bd
       0.0063417507 -0.0325078 -0.005833733 -0.054191828
000310 06 51 be 3d b4 6a 4d bd 22 25 9d bd d9 dc 11 3d
       0.09292798 -0.05015059 -0.07673098 0.035611007
000320 e9 d2 3f 3d 6b 0b af 3b bf e0 72 3c 7b 0c 8e bd
       0.046832 0.0053419373 0.014824091 -0.06935974
000330 a0 59 2b 3d 12 9f 3a 3d 19 1f db 3c 09 c7 e1 bc
       0.04183352 0.045561858 0.026748227 -0.027560728
000340 cc d0 b3 bd fd 42 b3 bb d9 6d be 3d f9 5d af bd
       -0.08780059 -0.005470632 0.092982955 -0.08562846
000350 9d 81 08 bd 2a 80 81 bd 8e fb c6 bc a0 15 f9 3d
       -0.033326734 -0.063232735 -0.024289872 0.12162328
000360 b5 15 a6 3c ce dc 76 bc 1c ab fe bd 8d c9 8e bd
       0.020274023 -0.015067292 -0.1243498 -0.069720365
000370 f2 61 50 bc c3 65 85 bc 6c 91 bc 3c 28 00 99 bc
       -0.0127186645 -0.016283875 0.023018561 -0.018676832
000380 fa 54 f7 bd 72 c6 15 bc ea 76 36 bd 6b f0 e3 bc
       -0.12076755 -0.009141551 -0.044547 -0.027824601
000390 a4 13 96 3d 5e ba eb bc 03 c9 e6 bd d0 80 87 bc
       0.07327965 -0.02877539 -0.11268809 -0.016540915
0003a0 eb 1e 02 3c f5 06 63 bd bd 1f 53 3d a5 84 30 3c
       0.007941942 -0.055426557 0.05154394 0.010773812
0003b0 bb 04 5d bd a7 57 18 3d aa 49 d5 3b 30 e7 df bd
       -0.05395959 0.037192967 0.0065090256 -0.109327674
0003c0 72 2b f8 3c fc 97 83 3d f2 56 b2 bd 74 db 44 bd
       0.030294154 0.06425473 -0.0870799 -0.04806085
0003d0 dc df 49 bd 67 82 32 3d d8 fe b7 bd 61 c2 02 3d
       -0.049285755 0.043581393 -0.089841545 0.031923655
0003e0 6e 27 e0 bd ac 34 ea bc c4 8c 56 bc b0 66 01 3e
       -0.109450206 -0.028589569 -0.013095085 0.12636828
0003f0 f0 c5 2d 3d fc e4 0d be 75 ac a4 bc 49 12 54 bd
       0.042425096 -0.13856882 -0.020101765 -0.05177525

conv2.lin_l.bias f4 [64]
000000 22 9d 00 3c fc d9 70 bc a6 59 a2 bb 5e da 1e 3c
       0.007849963 -0.014700409 -0.0049545346 0.0096956175
000010 be fd 01 3b 28 e4 dd 3b 7b 90 0b 3c 88 17 bc b9
       0.001983508 0.006771583 0.008518334 -0.00035875686
000020 02 19 12 3c 55 78 7a 3c ad d2 44 3c 41 12 38 bb
       0.008917095 0.015287478 0.01201312 -0.0028087052
000030 d8 21 50 ba f6 58 4b bb d4 bb 7f bc 68 21 32 3a
       -0.00079396134 -0.0031028367 -0.015608747 0.0006795139
000040 c2 2e 0c bc 42 8b 1f 3b c8 3b f1 3b ba f7 52 bb
       -0.00855607 0.0024344479 0.007361863 -0.0032191114
000050 24 61 8a bc 83 dc 8b bc eb fd cb bb 95 ca 8a bc
       -0.016892023 -0.017072922 -0.0062253377 -0.016942302
000060 ea 1e fa 3a 04 3b b5 39 08 27 85 bb e2 75 02 3b
       0.00190827 0.0003456698 -0.004063491 0.001990669
000070 6e b4 cd 3b 59 96 1e 3c 75 a5 1f 3b 38 8e 1c 3b
       0.0062776124 0.0096794 0.0024360095 0.002388848
000080 b2 7a 74 3c 0a 50 40 3b 0e b2 67 3c b0 c9 d4 3b
       0.014921831 0.0029344582 0.014141573 0.0064937696
000090 b5 e3 8a bb 06 ce 8b 3b e0 8c 26 b9 a2 df 09 3b
       -0.0042385706 0.0042665033 -0.00015883474 0.0021037837
0000a0 18 88 66 3c d0 5b 9c bb 28 d7 60 3a a9 6d 11 bc
       0.014070533 -0.004771687 0.00085769827 -0.008876243
0000b0 2a 01 60 bc f6 40 b2 bb d0 05 86 39 de 6c d9 bb
       -0.0136721525 -0.005439873 0.00025562802 -0.0066352924
0000c0 2c 15 55 bc ab 38 07 3a 60 5f a3 b9 4e 64 b8 bb
       -0.013005536 0.00051582855 -0.00031160843 -0.0056271916
0000d0 e1 44 de 3b dc 7a 68 3c c5 c4 38 3c c1 94 08 bb
       0.0067831133 0.014189448 0.011277382 -0.0020840617
0000e0 f9 b5 1b bc 2c 8d 52 bc 88 60 f4 3a 91 b0 8c bc
       -0.009503835 -0.012851041 0.0018644491 -0.017174037
0000f0 66 f9 87 3b 55 74 89 3c a2 3e d9 bb c2 29 66 bc
       0.0041496037 0.016779104 -0.006629781 -0.014048042

conv2.lin_r.weight f4 [64, 128]
000000 31 46 1c 3d d2 97 06 bd 36 f2 29 3b bb 51 77 bc
       0.038152877 -0.03285963 0.0025931722 -0.01509517
000010 64 1d 6e bd cb 80 cd bc d0 e5 a0 3b d3 09 91 bd
       -0.058133498 -0.025085827 0.0049102083 -0.07081952
000020 35 17 1c 3d ba b7 97 3d de 77 a5 bd 6a 0b 07 bc
       0.03810807 0.0740809 -0.080795035 -0.008242467
000030 20 71 43 bc 8a 0c 88 bc 3b 5b 67 bd 95 e5 4a 3d
       -0.011928827 -0.016607542 -0.05648349 0.049535353
000040 07 52 8d bd 8b 54 2d bc db 29 15 bd b4 56 92 3c
       -0.06900411 -0.010579239 -0.03641687 0.017863609
000050 68 e6 85 3b 6a ff ee bc 34 dc c2 bc 40 ae a0 3c
       0.0040863045 -0.029174525 -0.023786642 0.019614339
000060 3b 9a 55 bd 9d c7 71 3d 84 53 1c bd 14 bf 4b 3d
       -0.05214904 0.059028257 -0.038165584 0.049742773
000070 65 7a 08 bd e5 1e ac 3c e1 36 6c 3c 76 82 8d 3a
       -0.03331985 0.021010825 0.014417381 0.0010796327
000080 bd d2 49 3d 4f bd 29 3d d1 0e 98 bd 98 a7 cd 3b
       0.04927324 0.041440304 -0.07424701 0.0062760822
000090 cf cb 16 bd ce d1 3a bc 8e ea a2 3d 4c 5b 1a 3d
       -0.03681546 -0.01140256 0.07954894 0.037684724
0000a0 33 a3 48 3d 38 54 23 ba 0c ef ee 3d 03 bd 63 3c
       0.048983764 -0.0006230506 0.11666688 0.013900044
0000b0 c1 3c 69 3d 4a 9f 9b bc 74 e0 bc bd 92 a4 7e 3d
       0.056942705 -0.018996853 -0.092224985 0.062168665
0000c0 dd 1d c5 3d 16 63 b3 bd b6 d1 68 3c d1 9f 9d 3c
       0.096248366 -0.087591335 0.014210155 0.019241245
0000d0 4c fe e3 3d a1 1f b1 bd dc 05 86 3d 4c 95 ae bd
       0.11132488 -0.08648611 0.06544086 -0.0852457
0000e0 72 38 2c bd 10 4d 2f 3c f1 17 e5 bc cd e8 91 3d
       -0.042046018 0.0106995255 -0.027965518 0.07124481
0000f0 21 4f c6 3b 34 2c 76 3d 43 55 4b 3b c5 28 52 3d
       0.0060519134 0.06010075 0.0031026162 0.051308412
000100 7a 79 1e bd b9 b2 f9 bc 9a 64 5e bd 09 b0 fd 3d
       -0.038690068 -0.03048073 -0.05429516 0.12387092
000110 ab 91 f3 3d 40 c5 a9 3d 66 e1 51 bd 22 68 b8 bd
       0.11893018 0.082895756 -0.051240347 -0.09004237
000120 bb c5 8a bd 55 23 df 3d bf 39 ab 3c 16 c4 4b 3c
       -0.06775995 0.10895411 0.020901559 0.012436887
000130 44 78 e2 bd 11 8a 26 bd 13 7e 8d 3d 80 7c b8 bd
       -0.11058095 -0.040659014 0.069088124 -0.090081215
000140 75 6f 07 bd 58 ca 8e 3d 8f 80 aa 3d 8e ea 3e 3d
       -0.033065278 0.06972188 0.08325302 0.046610408
000150 1c 53 95 bd 72 28 67 bb da 64 03 3b 24 83 4e bc
       -0.072912425 -0.003527191 0.0020049126 -0.012604509
000160 42 ee fd bc c0 2e 49 bc 6c 37 73 3b 5c 2a a2 3b
       -0.0309974 -0.0122792125 0.0037111891 0.0049488973
000170 3b bc d4 3d 81 be 4a bd 84 6e b4 3d 8c 2f 69 3d
       0.103874646 -0.049498085 0.08810142 0.05693011
000180 3e 27 2a 3b 3e e4 7f 3c 2a 1e e2 3d 65 1e 0b bc
       0.0025963332 0.015618382 0.110409096 -0.008491133
000190 4d 1e 12 3c f7 4d 54 bd 77 28 d0 3d d9 25 e1 3d
       0.008918357 -0.051832166 0.10163968 0.10993547
0001a0 76 c8 85 3d 57 ec 3d 3d 18 d6 ea 3c 2b 67 66 3d
       0.065323755 0.04636797 0.028666541 0.056250732
0001b0 50 11 e4 b9 79 9a a1 3c de 07 01 bd ce 11 a7 3d
       -0.00043500448 0.019726979 -0.031501643 0.08157693
0001c0 b5 09 8e 3c 42 3d 8e 3c 08 f1 e1 39 29 f8 ca 3d
       0.017338613 0.017363194 0.00043094927 0.09910614
0001d0 8a 0d 11 3e a8 12 73 bc 51 d6 ae 3d 5a c2 b6 3a
       0.14165321 -0.014835991 0.08536971 0.0013943419
0001e0 dc 1b 85 bc 80 b3 f3 bd eb 0f 2a bd fb 43 d4 bd
       -0.016248636 -0.11899471 -0.041519087 -0.10364529
0001f0 77 d8 bc 3d 28 16 ba 3d de c3 c6 bd a2 35 cb 3d
       0.09220975 0.09086257 -0.097053275 0.09922339
000200 f9 f2 db 3c 73 12 d9 bd 04 10 21 bd de cd 28 bd
       0.026849257 -0.10599222 -0.039321914 -0.041211955
000210 ba b9 28 3d 85 75 20 bd b5 d1 aa bd cd 0d 0b bd
       0.041192748 -0.039174575 -0.0834078 -0.03394871
000220 b2 39 c3 bc e9 69 e5 bd 6a 11 93 3b 02 88 cc 3c
       -0.023831222 -0.112018414 0.00448816 0.024967197
000230 c3 24 3e 3d 12 74 e3 bc 1e c1 93 3c ef bb 88 bd
       0.046421777 -0.027765308 0.018036421 -0.066764705
000240 ae 8e b2 bc c0 93 22 3d 81 08 4b bd 09 29 53 bd
       -0.02179655 0.039691687 -0.049568657 -0.051552806
000250 7c 7c b0 bd 24 35 1d bb 78 25 d6 bd 3b 48 85 3d
       -0.086174935 -0.0023987973 -0.10456365 0.065079175
000260 b7 2f 15 bc 79 af d9 bd 83 13 ea 3c 44 0f 7c bd
       -0.009105614 -0.10629172 0.028573757 -0.061537996
000270 b6 c9 7a 3b 34 62 c4 3c 70 23 91 b9 e5 11 9b bd
       0.0038267202 0.023972608 -0.00027682958 -0.075717725
000280 38 a1 8b 3d 9f 68 4b bd f9 b4 e0 3d e1 82 33 3d
       0.068178594 -0.04966032 0.10972018 0.043825988
000290 57 26 86 bb e3 e3 4f bd 5a 14 ce 3b d8 22 cc bd
       -0.004093926 -0.05075444 0.006289047 -0.099675834
0002a0 4d f1 b4 3c 68 0f ff 3d af 5a fa 3c 92 14 9f bd
       0.022087717 0.124541104 0.03056082 -0.07767595
0002b0 6b 0a e0 bd 27 43 4c bb 4f 14 ba bc 65 4a de bc
       -0.10939487 -0.0031167956 -0.022714762 -0.027135083
0002c0 0c e9 7b bd 78 a1 c2 3d c9 f1 15 bd 82 c6 e9 3d
       -0.061501548 0.09503454 -0.036607537 0.114148155
0002d0 67 11 aa 3c 51 2a 23 3d 04 7c ec bc ac 62 74 3b
       0.020760251 0.039835278 -0.028867729 0.0037290258
0002e0 6a 03 90 3d e2 56 f3 3a 99 a7 a2 3d 5d 8c b8 3c
       0.07031901 0.0018565322 0.07942123 0.022527868
0002f0 43 ac d1 3d 68 85 95 bd 9c c0 2a 3d 8c 18 85 3a
       0.102379344 -0.07300836 0.041687593 0.001015441
000300 e9 d1 53 bd c5 4d e5 bd d3 90 d7 3d 3e c8 08 3d
       -0.051713858 -0.11196474 0.1052567 0.03339409
000310 bf 2d c8 bd eb 0b 8d bd 35 cc 41 bc 63 0e 94 bc
       -0.097743504 -0.06887039 -0.011828472 -0.018073266
000320 c4 ca c4 3d 1d 19 38 3d 4b 50 e5 bd ee b2 04 be
       0.09608987 0.044945825 -0.11196955 -0.12958881
000330 09 d3 ee 3c 65 31 25 3d 44 36 5d bd 9e 7d db 3d
       0.029153364 0.04033031 -0.05400683 0.10717319
000340 ba 85 df 3c 9e bd 2f 3d a5 2d f1 3d 06 99 c0 3c
       0.027285445 0.042905442 0.11776284 0.023510467
000350 5e aa c8 3d 77 3d c4 3d c6 a0 fe bb de e4 de 3d
       0.0979812 0.09582036 -0.0077706305 0.10883497
000360 1c 7c 8d bc 80 16 39 bd f3 e1 46 bd ea 8f 8c bd
       -0.017271094 -0.045187473 -0.048555326 -0.06863387
000370 d3 be 7e bc a3 51 ba bc 3b 06 db bd 07 82 b1 3d
       -0.015548426 -0.022744006 -0.10694548 0.08667379
000380 fe 9b b7 bd a9 6d ef 3c 22 f7 bf bc 04 4e 92 bb
       -0.089653 0.029227095 -0.023433272 -0.0044648666
000390 bd 10 7d 3d f1 75 df 3d e8 9f f1 bd 6b 05 a5 bd
       0.06178354 0.109111674 -0.11798078 -0.08057674
0003a0 d7 b5 bd bc 14 f3 4d ba 84 b6 e2 3d 8d a7 8b bd
       -0.023157997 -0.0007856351 0.11069968 -0.06819067
0003b0 49 7b 86 bd 8b 81 cf 3d 47 d5 f1 bd 21 52 3a bd
       -0.065664835 0.1013213 -0.118082576 -0.04548848
0003c0 71 fa ff bd 4c f4 a9 bb 2d 86 a7 bc 44 d4 ec 3b
       -0.1249894 -0.005186593 -0.020449722 0.0072274525
0003d0 65 84 23 3d e5 b6 fe 3c c2 4e aa bd 30 1f db 3a
       0.039921183 0.03109307 -0.08315803 0.0016717669
0003e0 f3 e2 1d 3d 0a 19 8d bc 5f 1e f6 3c 39 44 9f bc
       0.038546514 -0.017223854 0.030043779 -0.01944171
0003f0 04 4a c8 3c 46 bb b5 3c 06 57 07 bd 3f 54 29 bd
       0.024449356 0.022184025 -0.033041976 -0.04134011

bn1.weight f4 [128]
000000 17 48 84 3f 09 ed 75 3f 63 29 76 3f e3 46 76 3f
       1.03345 0.9606481 0.961569 0.96201915
000010 38 1b 85 3f 1b 6a 77 3f c4 0e 76 3f 05 5b 86 3f
       1.0398932 0.9664628 0.9611628 1.0496527
000020 12 79 7a 3f 68 61 80 3f 29 79 76 3f 9f 11 76 3f
       0.9784099 1.0029726 0.96278626 0.9612064
000030 71 a1 75 3f 62 a4 83 3f b1 76 75 3f e8 d0 84 3f
       0.95949465 1.0284541 0.95884234 1.0376253
000040 a4 ec 75 3f 17 06 84 3f 88 82 87 3f cc 76 84 3f
       0.9606421 1.0314358 1.058671 1.0348754
000050 78 26 7e 3f ce cf 75 3f b5 1a 76 3f fc 85 75 3f
       0.9927745 0.9602021 0.961345 0.9590757
000060 a2 90 7b 3f 78 67 85 3f 4a 52 84 3f ff 64 85 3f
       0.9826757 1.0422201 1.0337613 1.0421447
000070 c8 45 88 3f 7a f8 85 3f 4d 7c 76 3f e3 2c 85 3f
       1.0646296 1.0466454 0.9628342 1.0404323
000080 02 c0 74 3f c3 0c 75 3f 86 d6 72 3f 41 f4 76 3f
       0.9560548 0.957226 0.94858587 0.9646645
000090 d4 af 80 3f b7 99 84 3f 71 b5 85 3f fc da 85 3f
       1.0053658 1.035941 1.0445997 1.0457454
0000a0 ba 12 84 3f a8 1a 76 3f 11 2a 79 3f 25 35 84 3f
       1.0318215 0.96134424 0.97329813 1.0328718
0000b0 a7 b9 77 3f 84 9b 76 3f 6d fd 75 3f 5a 5c 73 3f
       0.9676766 0.9633105 0.9608982 0.9506279
0000c0 0c 56 84 3f b5 52 84 3f bc 51 85 3f 87 3a 75 3f
       1.033876 1.033774 1.0415568 0.9579243
0000d0 8c a0 74 3f 72 ab 85 3f 6d 3e 85 3f c4 40 85 3f
       0.95557475 1.0442946 1.0409676 1.041039
0000e0 b1 9e 84 3f c8 f3 86 3f 62 70 76 3f cf e8 84 3f
       1.0360929 1.0543146 0.9626523 1.0383548
0000f0 83 11 87 3f 63 21 7d 3f c6 07 74 3f 4b 79 82 3f
       1.0552219 0.9887907 0.9532436 1.0193266
000100 7c 91 85 3f 2f 89 76 3f 8d 9e 74 3f 5c e0 84 3f
       1.0435023 0.96303076 0.9555443 1.0380969
000110 4a 65 87 3f eb c5 85 3f e7 19 85 3f af 79 73 3f
       1.0577786 1.0451025 1.039853 0.9510755
000120 e2 d8 79 3f 2a 52 86 3f 0a 34 86 3f a9 e4 83 3f
       0.9759656 1.0493824 1.0484631 1.0304157
000130 b2 77 84 3f 76 e7 75 3f f4 62 76 3f 82 6c 76 3f
       1.0349028 0.96056306 0.9624474 0.9625932
000140 a1 27 72 3f 87 95 84 3f 68 85 76 3f f5 6a 77 3f
       0.9459172 1.0358132 0.9629731 0.9664758
000150 33 54 6c 3f e1 b0 84 3f d4 cf 81 3f 0c fa 88 3f
       0.9231598 1.0366479 1.0141549 1.0701308
000160 62 5c 86 3f d3 d4 75 3f 6a 29 76 3f e0 54 85 3f
       1.0496943 0.9602787 0.9615694 1.0416527
000170 f9 76 88 3f 99 95 86 3f 74 6b 77 3f 8f c9 7a 3f
       1.0661308 1.0514404 0.96648335 0.97963804
000180 e8 2d 82 3f 63 97 76 3f 2d c4 77 3f a6 57 85 3f
       1.017026 0.9632475 0.96783715 1.0417373
000190 98 9e 83 3f cc 6b 84 3f 9d b8 75 3f bb 35 76 3f
       1.0282774 1.0345397 0.9598482 0.96175736
0001a0 f1 36 76 3f 02 16 85 3f 06 b2 76 3f 8a 28 76 3f
       0.96177584 1.0397341 0.9636539 0.9615561
0001b0 68 df 84 3f f6 27 6d 3f 26 db 75 3f a8 55 77 3f
       1.0380678 0.926391 0.9603752 0.96615076
0001c0 d1 39 89 3f 7b f9 77 3f 6d b0 84 3f f0 e2 84 3f
       1.0720769 0.9686505 1.0366341 1.0381756
0001d0 4f 65 77 3f eb 23 76 3f 91 62 88 3f ac be 77 3f
       0.9663896 0.96148556 1.065508 0.9677532
0001e0 63 b3 75 3f 07 51 79 3f b2 8c 85 3f ce 89 86 3f
       0.9597685 0.9738926 1.0433562 1.0510805
0001f0 84 5f 82 3f 3c 40 85 3f 8d 48 7f 3f 53 a2 78 3f
       1.0185399 1.0410228 0.9972008 0.9712269

bn1.bias f4 [128]
000000 66 77 7c bd ed aa 17 bd 6f 15 11 bd 28 d8 17 bd
       -0.061637305 -0.037028242 -0.03542083 -0.037071377
000010 09 75 8e 3d a6 79 8b bb b0 73 18 bd b1 cb 5e 3d
       0.069559164 -0.004256445 -0.037219703 0.054393474
000020 ce b3 8f 3d 5a 36 22 bd 55 68 18 bd 51 00 26 bd
       0.07016717 -0.039602615 -0.037208874 -0.040527645
000030 fc ce 75 bc 9c 71 ff bc e4 a6 16 bd a0 54 30 3d
       -0.015002962 -0.031182103 -0.036780253 0.043049455
000040 de 0c 2a bd df 4a 49 3c 83 b6 3d 3d 9b 9d 15 3d
       -0.041516177 0.012285917 0.046316635 0.036527257
000050 61 32 ae 3c 80 48 27 bd 95 a6 1e bd 23 57 ff bc
       0.021264257 -0.040840626 -0.038733084 -0.03116948
000060 9c c2 bb bc 25 a2 58 3d 20 1d 15 3d 31 49 42 3d
       -0.022919945 0.052889008 0.03640473 0.047433082
000070 52 4a 8a 3d d2 56 d6 bc 3e 09 14 bd 47 e7 1f 3d
       0.06752457 -0.026164446 -0.036141627 0.039038923
000080 7b 32 1c bd 4a 18 19 bd 16 89 1c bd 41 9e 17 bd
       -0.03813408 -0.03737668 -0.038216673 -0.037016157
000090 a6 5c 2d bd c7 76 3a 3d cf 74 53 3d cc 94 67 3d
       -0.042324685 0.04552343 0.05162507 0.056538388
0000a0 89 ff 21 3d 6b bb 41 bd 26 64 e8 bc 89 fb 2a 3d
       0.039550338 -0.047297876 -0.028368067 0.04174379
0000b0 dd fa 62 3d 32 5b 09 bd 6b 2a 16 bd e9 e2 3e bd
       0.055415023 -0.033534236 -0.036661547 -0.046603117
0000c0 03 12 25 3d 33 95 20 3d 45 54 54 3d 33 69 e0 bc
       0.04030038 0.039204787 0.05183818 -0.027393913
0000d0 27 25 2a bd f7 ed 41 3d 23 0f 47 3d a6 12 46 3d
       -0.041539337 0.04734608 0.04859842 0.04835763
0000e0 c3 9e 26 3c 4d d6 70 3d d7 ed 11 bd 5e d7 34 3d
       0.010169688 0.058798123 -0.035627212 0.044150703
0000f0 be 85 62 3d 9e 4b 29 3d a7 45 56 bd e8 80 82 bd
       0.055303328 0.04133188 -0.05231252 -0.06372243
000100 13 e5 74 3d ca 68 91 bc 2c 9d f8 bc a2 e5 9f bc
       0.059788775 -0.017750163 -0.030348383 -0.019518677
000110 7e e8 1f 3d 13 24 50 3d 7e 3c 34 3d cc b9 33 bd
       0.03904008 0.050815653 0.044003002 -0.04387836
000120 0e bb d9 bc f2 29 64 3d 4d 15 36 bc 47 4c 82 3c
       -0.026578452 0.055704065 -0.011113477 0.015905512
000130 2a a9 26 3d 9a ef 20 bd d3 af b1 bc 96 08 24 bd
       0.04068867 -0.039291 -0.021690285 -0.04004725
000140 12 f0 62 bd b0 ca 29 3d 1e 27 12 bc 33 a0 dd bc
       -0.05540473 0.041453063 -0.008920459 -0.027053928
000150 76 39 46 3d 60 e6 1c 3d e3 7e 30 bd 8d 24 88 3d
       0.048394643 0.03830564 -0.04308976 0.066475965
000160 f9 00 5b 3d 2a 9a e0 ba 8f 43 1b bd cf 8e 80 3d
       0.053467724 -0.0017135788 -0.037906226 0.062772386
000170 c4 1e b0 bc 88 bb 7b 3d ac ab e3 bc 8f c3 3a 3d
       -0.021499045 0.06145814 -0.02779182 0.045596655
000180 b6 5b 98 3d ad b3 19 bd b5 23 ec bc 8e 3e 5d 3d
       0.074393675 -0.037524868 -0.02882562 0.054014735
000190 e2 72 5b 3d 78 f5 10 3d 3c df 21 bd 47 75 13 bd
       0.053576358 0.035390347 -0.039519534 -0.036000516
0001a0 f9 ac 10 bd 35 54 33 3d 65 71 14 bd cc 61 16 bd
       -0.03532121 0.043781478 -0.036240954 -0.03671436
0001b0 13 a8 22 3d 4b 91 55 3d 71 63 15 bd 54 cc 8d bc
       0.03971107 0.052140515 -0.036471788 -0.017309345
0001c0 72 d1 f2 bc 81 74 c0 bc 20 d1 3a 3d 52 cd 3b 3d
       -0.029640887 -0.023493053 0.045609593 0.045850106
0001d0 54 cf 2c bd 73 f0 1c bd 21 64 8e 3d 4a bf 02 bd
       -0.04218991 -0.038315248 0.06952692 -0.03192071
0001e0 cf 64 1e bd ea d7 cd bb 1e 7d 44 3d 8c 66 96 3d
       -0.038670357 -0.0062818425 0.047970884 0.07343778
0001f0 e4 22 34 bd 90 a0 37 3d c9 25 51 3d cf ba a0 bc
       -0.043978587 0.04483086 0.051061425 -0.019620327

bn1.running_mean f4 [128]
000000 2b 2c 79 be e8 ac 88 3f 62 92 1c bf 07 e7 38 bf
       -0.24333255 1.0677767 -0.6116086 -0.7222752
000010 6e b3 d1 bc 41 ec 1e 3f 96 f8 cf be be 6e c8 bd
       -0.025598254 0.62079245 -0.40619344 -0.097867474
000020 7c 50 66 bf 62 c8 c6 bd c4 4c 83 bf f9 f2 04 bf
       -0.8996656 -0.09706189 -1.0257802 -0.51933247
000030 6c 1a 51 bf f3 c7 fb be 52 fa 86 bf 8b 53 2b 3f
       -0.8168094 -0.49175987 -1.0545142 0.6692435
000040 43 d8 f3 be a1 c4 0c be 13 90 87 3e 6f ac 74 bf
       -0.47625932 -0.13746883 0.26477107 -0.9557561
000050 f0 85 67 3f 06 58 36 bd d2 10 a5 3e 9e 92 02 bf
       0.9043875 -0.04451754 0.32239395 -0.5100497
000060 c8 fa 3f bf 94 2a d4 3e f2 e9 82 3e b3 83 0d 3f
       -0.74992037 0.41438735 0.2556911 0.5527908
000070 14 7f 1d be 32 e3 84 3f 00 90 bc 3e 37 1e 36 3e
       -0.15380508 1.0381835 0.36828613 0.17784964
000080 f5 a7 83 bf 93 c9 c1 be 41 30 18 bf f5 ec 8d be
       -1.0285631 -0.378491 -0.5944863 -0.27719846
000090 b6 34 a3 3b f8 6b 61 3e 3e 6d bf 3e 74 b6 81 3f
       0.004980649 0.22013843 0.37388033 1.0133805
0000a0 1c 54 b0 3e 47 6e 89 bf 07 6d 64 3d 66 d1 85 3f
       0.3443917 -1.0736779 0.05576804 1.0454528
0000b0 04 d5 97 3e b5 5f f8 3e 80 51 55 bf a5 d8 d8 3e
       0.29654706 0.4851052 -0.83327484 0.42352787
0000c0 b8 70 76 3f c0 7d 12 be 66 a2 88 3f e2 92 c6 bd
       0.96265745 -0.14305782 1.067456 -0.096959844
0000d0 3e 8b 2a 3d 8e f7 59 be 22 a2 36 3f b3 e6 83 bf
       0.041636698 -0.21285841 0.71341145 -1.0304779
0000e0 5f c2 8b bc 04 cd 14 3f 23 a8 76 bf 27 bf 5b 3e
       -0.017060457 0.5812533 -0.96350306 0.21459638
0000f0 b1 e9 40 be ca c8 c6 3e 1a 16 2b be a6 52 49 3d
       -0.18839146 0.38825065 -0.1670765 0.049151085
000100 82 dc 81 3e d2 9b fd 3e b7 8b e9 be 9e 5a 51 3f
       0.25363547 0.49532944 -0.45614406 0.81778896
000110 59 48 28 3e d0 c8 3f 3e 11 e5 0e 3f af 54 34 bd
       0.16433848 0.18728948 0.5581828 -0.044026073
000120 4f 82 37 bf 53 cc c6 3e e2 f0 a1 3e 6f 80 d8 3e
       -0.7168321 0.38827762 0.31629092 0.42285487
000130 50 ce dd be ae 73 13 bf b4 57 08 3d d5 2a 09 bf
       -0.43321466 -0.5759839 0.033286765 -0.5358098
000140 64 78 15 bf b1 04 d6 3d 4c f3 1c 3e c6 5d 1e 3f
       -0.58386827 0.104501136 0.15327185 0.61861837
000150 3f dc b8 be 1a 8e ff be 20 67 20 bf 40 1a 41 bf
       -0.36105534 -0.49913102 -0.62657356 -0.7543068
000160 e6 78 d7 be 14 f5 2e bf 29 e7 33 3f 43 62 0d 3f
       -0.42084426 -0.6834271 0.702746 0.5522806
000170 af 5c 02 3e a2 86 b3 3e 8d 30 9f 3e 68 be 40 bf
       0.12730668 0.35063654 0.3109173 -0.75290537
000180 35 28 2f 3f 69 73 0d 3e e0 ff 34 3f 55 a3 a8 3e
       0.68420726 0.13813557 0.70702934 0.32937112
000190 f6 2c f8 be b1 df 14 be 78 bb 75 3f 33 cd fe 3d
       -0.48471802 -0.14538456 0.9598918 0.124414824
0001a0 b4 24 7f 3e 88 6f d4 3e 36 e0 b1 be 38 ad 42 3e
       0.24916345 0.41491342 -0.34741372 0.1901139
0001b0 bb f7 b9 be c5 b5 b6 be 17 25 98 3e 06 80 82 3f
       -0.36321816 -0.35685554 0.29715797 1.019532
0001c0 9b ea e5 bd a1 aa 82 bf 44 75 3b 3f fc 29 67 3e
       -0.11226388 -1.0208322 0.7322581 0.2257461
0001d0 37 f6 54 be 26 75 b2 be bd d7 4a 3e fe 6f 8f 3e
       -0.20797049 -0.34855002 0.1980886 0.2801513
0001e0 53 1f 86 3e 24 9b 1e bf 4f e1 d7 bd 4a d6 7c be
       0.26195773 -0.61955476 -0.10541021 -0.2469112
0001f0 8e 13 00 3f a0 8a a8 3e 82 20 91 be 9c 4e 08 3f
       0.5002984 0.32918262 -0.28345114 0.5324495

bn1.running_var f4 [128]
000000 f5 a3 36 3f 1e 2d 53 40 d2 44 99 3f ee 4b 83 40
       0.7134393 3.2996287 1.1974127 4.1030188
000010 fa 3b cd 3f 02 9c 39 40 ed b9 6a 3f c2 0c b7 3f
       1.6033928 2.900147 0.9168995 1.4300768
000020 7c 21 20 40 11 54 4d 3f 7f cb cc 40 c8 b1 2d 40
       2.5020437 0.802064 6.399841 2.713976
000030 72 6e 87 40 72 d5 83 40 00 fa 96 40 1f 43 97 40
       4.232232 4.1198053 4.7180176 4.7269435
000040 c3 4b cd 3f 59 bd ef 3f 33 52 43 3f 89 3c b2 40
       1.6038746 1.8729659 0.762973 5.5698895
000050 58 77 84 40 3f 2e 59 3f 9f 71 5f 3f 76 0d 16 40
       4.1395683 0.8483619 0.8728275 2.3445716
000060 bd fa 81 40 3a ad 76 40 8d 4c e1 3f af 5a e3 3f
       4.0618577 3.854323 1.7601486 1.776205
000070 b5 b2 a1 3f 87 45 a2 40 42 af 2b 3f d3 da aa 3f
       1.2632662 5.070987 0.670643 1.334803
000080 1f 49 89 40 7e bb 2f 40 10 24 27 40 33 13 45 3f
       4.290176 2.7458186 2.611576 0.7698242
000090 d4 dd 14 3f c6 f4 f8 3f 4d d4 97 3f d3 cd ac 40
       0.5815098 1.9449699 1.1861664 5.400125
0000a0 a7 f2 ef 3f ec f7 37 40 d7 fe 8e 3f 20 66 81 40
       1.8745927 2.874507 1.1171521 4.0437164
0000b0 9c e9 7b 3f 58 3e 05 40 f7 14 71 40 ba 2e 82 3f
       0.98403335 2.0819302 3.7669046 1.017051
0000c0 f3 35 8d 40 6a b1 f1 3f 20 3f 8c 40 d8 ea 65 3f
       4.4128356 1.8882267 4.3827057 0.8981147
0000d0 e9 6b 9d 3f ed f6 ae 3f d5 9e 8f 40 3e bf be 40
       1.2298557 1.3669106 4.4881387 5.960845
0000e0 04 bd 2c 3f c0 01 31 40 92 ed ad 40 48 42 65 3f
       0.67475915 2.7657318 5.4352503 0.8955426
0000f0 33 54 8b 3f 30 28 13 40 61 db 43 3f 02 15 29 3f
       1.088507 2.2993279 0.7650662 0.6604768
000100 48 6e 90 3f 6a 9a 8f 3f 69 69 18 40 f0 61 b1 40
       1.1283655 1.1218998 2.3814337 5.5432053
000110 3c 2e 70 3f 53 b2 b2 3f 33 eb d8 3f cf d1 44 3f
       0.9382055 1.396067 1.6946777 0.7688264
000120 fe e8 b5 40 6e 5f 0d 40 04 04 ad 3f fa 01 44 3f
       5.6846914 2.2089496 1.351685 0.76565516
000130 a7 5c 24 40 81 e4 68 40 75 3e 31 3f 02 a9 88 40
       2.568155 3.6389468 0.69235927 4.270631
000140 c6 48 1d 40 09 49 83 3f de 1f 2d 3f 96 63 74 40
       2.4575667 1.0256664 0.6762675 3.8185782
000150 a3 90 02 40 02 b4 18 40 dd 9e 95 3f 48 9d 8b 40
       2.040078 2.3859868 1.1689106 4.3629494
000160 6e b4 0c 40 20 b3 7b 40 26 10 03 40 83 4d da 3f
       2.1985126 3.932808 2.0478606 1.7054905
000170 ae 25 a4 3f a8 17 82 40 be eb af 3f bd dd af 3f
       1.2823999 4.0653877 1.3743818 1.3739544
000180 30 41 44 40 5b b6 29 3f 58 4a bc 3f 89 b1 de 3f
       3.0664787 0.6629388 1.4710188 1.739793
000190 9d a9 aa 3f dc 3f 5c 3f 81 fc 88 40 16 9b 8c 3f
       1.3333012 0.8603494 4.280823 1.0984828
0001a0 64 2a 32 3f 56 ab c5 3f c8 c8 ac 3f 8b 69 58 3f
       0.6959593 1.5442913 1.3498774 0.84536046
0001b0 6c 8f bc 3f 2b 55 e9 3f a7 e4 99 3f 00 f1 85 40
       1.4731269 1.8229116 1.2022904 4.185669
0001c0 6b 35 28 3f 85 31 99 40 b4 51 80 40 85 4e e3 3f
       0.6570651 4.787295 4.0099735 1.7758337
0001d0 dd 28 51 3f 94 fc 61 3f d8 a4 4e 3f a2 1f bd 3f
       0.8170298 0.8827603 0.8072028 1.4775279
0001e0 e1 a4 99 3f a5 86 4e 40 45 f1 a5 3f 4c 5a 7e 3f
       1.2003442 3.226968 1.2964255 0.9935653
0001f0 06 2d b2 3f 09 62 07 40 85 32 36 3f 1e 26 20 40
       1.391999 2.1153586 0.71170837 2.5023265

bn2.weight f4 [64]
000000 17 dc 89 3f 0f 48 85 3f 3c 61 72 3f 4f be 76 3f
       1.0770291 1.0412616 0.9467962 0.9638414
000010 82 2e 87 3f 1d 11 8a 3f 03 0a 86 3f 3a ee 77 3f
       1.0561068 1.0786473 1.0471805 0.9684788
000020 0b b6 73 3f de de 87 3f ce 50 76 3f ec aa 86 3f
       0.9519965 1.0614889 0.9621705 1.0520911
000030 ce ea 85 3f f1 ec 89 3f 0d b6 86 3f 51 4e 83 3f
       1.0462282 1.0775434 1.0524307 1.0258275
000040 20 dd 89 3f 47 fc 7c 3f 04 15 86 3f 48 14 77 3f
       1.0770607 0.98822445 1.0475163 0.9651532
000050 9b 86 89 3f 5d c5 89 3f 00 47 85 3f 4e e5 76 3f
       1.0744203 1.0763355 1.0412292 0.9644364
000060 7f 84 82 3f 6a 61 77 3f 23 85 80 3f e9 63 86 3f
       1.0196685 0.9663302 1.004063 1.049924
000070 1e 2e 89 3f dc 5a 89 3f 2e 13 8a 3f 4e 10 77 3f
       1.0717199 1.0730853 1.0787103 0.96509254
000080 e8 0e 76 3f c4 c6 7e 3f f1 1c 73 3f ad 5f 89 3f
       0.96116495 0.9952204 0.94966036 1.0732323
000090 e9 b1 86 3f 01 4b 77 3f 36 52 85 3f 80 70 86 3f
       1.0523044 0.9659882 1.0415714 1.0503082
0000a0 05 de 76 3f 53 c3 78 3f ee 59 77 3f 0d af 88 3f
       0.96432525 0.9717304 0.96621597 1.0678421
0000b0 35 92 87 3f ae 39 76 3f 0d 94 89 3f af 64 89 3f
       1.0591494 0.9618176 1.0748307 1.0733851
0000c0 4a 4d 89 3f 7f 84 88 3f 9b 66 86 3f 89 17 88 3f
       1.0726712 1.0665435 1.0500063 1.0632182
0000d0 cf fa 89 3f 33 37 84 3f de aa 88 3f 4b 16 79 3f
       1.0779666 1.0329345 1.0677145 0.9729964
0000e0 33 6e 89 3f 4e 2d 87 3f a1 a3 72 3f 9e b3 89 3f
       1.0736755 1.0560701 0.9478093 1.075794
0000f0 06 39 86 3f 80 30 8a 3f e3 03 86 3f 94 15 8a 3f
       1.0486152 1.0796051 1.0469936 1.0787835
