best_model.pt (torch, 82485 bytes, 16 tensors)

conv1.lin_l.weight f4 [128, 6]
-0.10472651 0.014546932 0.14956312 -0.09327394 -0.11267662 0.14556332 0.06906019 -0.105628885
0.36394447 -0.24533954 0.3135399 -0.33239314 0.06796381 -0.12836829 -0.23975308 -0.090479
-0.2201154 -0.0058260267 -0.046643563 -0.4086633 -0.15505631 -0.24033827 -0.31655544 0.3788982
-0.27319956 0.02722095 -0.26767296 -0.08089103 -0.13376176 0.1374663 0.039795697 0.06766576
0.24045773 -0.34135193 -0.21130858 -0.034013588 0.036011185 0.24463777 -0.07976356 0.18138234
0.23363326 0.025696972 0.14763743 -0.25481412 -0.34617442 -0.22891599 0.2342935 0.37727284
-0.119158894 -0.17051223 -0.11244564 0.15082864 -0.21636003 -0.4006258 -0.2540277 0.3092226
-0.25086492 -0.3697393 0.012040561 0.06242037 -0.08632969 -0.094312996 -0.076679885 -0.016693154
0.07009733 0.1885648 0.39464712 0.14199969 0.15975794 -0.09237878 -0.36108744 0.0021204823
-0.07566307 -0.2597533 0.36022598 0.11696035 -0.09688425 0.248755 -0.0037688958 -0.012528414
-0.069023095 0.15575558 -0.22543013 0.12762882 0.23113681 0.16826658 -0.21661982 0.16990492
0.073248945 0.15546039 0.32291818 0.12230272 -0.2870108 0.08361689 -0.4100421 -0.13347255
-0.43962607 0.29094082 -0.3488681 0.11263713 0.32981947 0.26197556 -0.04487223 -0.12799236
0.1287412 -0.13099183 -0.21004097 -0.030310003 0.03365542 -0.41673607 0.35745558 -0.11582384
0.14273019 -0.13578682 -0.06739563 -0.21033734 0.14560165 0.0582191 0.33365422 -0.3609406
0.08966878 0.09967814 -0.00919328 0.21973419 -0.07423552 -0.049942005 0.38531363 -0.24225377
0.38843012 0.36295065 -0.38751507 -0.20760745 0.3163196 -0.18425173 -0.37889513 -0.17793071
-0.1598083 0.22715412 -0.2422862 -0.20106944 0.37696666 -0.21645012 0.22960612 0.15573876
0.28129193 0.1799688 0.27055812 0.22537588 -0.12222079 0.27718186 0.33554906 0.112909846
-0.06730874 0.1328722 -0.42685398 -0.2932264 0.03056397 -0.27384633 -0.031170107 -0.3525819
0.33221185 0.08843891 0.26344645 0.16613586 0.3638987 0.085750304 0.18331304 -0.061384752
0.025951684 -0.084888905 0.12259305 -0.3683832 0.046169374 0.3272583 0.042331688 0.3490151
0.14104402 0.34937775 -0.04920832 0.2557159 -0.09936184 0.013477138 0.20054628 -0.21197772
0.28197777 -0.34281188 0.14905713 0.26400802 0.0017596302 -0.371585 -0.11312211 -0.1264817
-0.03779026 0.325435 0.24421348 -0.19939448 0.14578228 0.29988912 0.21592197 -0.01553111
-0.12120028 0.1799893 0.27515614 0.12348364 0.30463362 0.16030908 -0.30184108 0.017881202
0.3419846 -0.21340927 -0.23819232 0.06944495 -0.4342651 0.36427587 0.16339394 -0.07741502
0.28457317 0.272622 -0.03237554 0.23904684 -0.25821686 0.19324143 -0.09212814 -0.08758054
0.13190968 0.16634342 0.12099011 -0.16223773 -0.36246374 -0.37910524 -0.23632932 -0.031176021
0.31653884 -0.36864847 -0.240491 0.10600771 -0.010870867 0.30281782 0.16048574 -0.2417777
0.30402964 -0.09846361 0.43996233 0.07931331 -0.30724922 0.18475878 -0.36513415 -0.16022354
-0.4244868 0.002932449 -0.14600456 -0.21788877 -0.2654554 -0.2889095 0.34584728 0.018519009
00000000: da7a d6bd 4156 6e3c 1327 193e 6806 bfbd
00000010: 00c3 e6bd 8d0e 153e 6e6f 8d3d f553 d8bd
00000020: ee56 ba3e 4a3a 7bbe 4d88 a03e 6f2f aabe
00000030: 9c30 8b3d fa72 03be d581 75be 0e4d b9bd
00000040: ee65 61be 41e8 bebb 520d 3fbd 513c d1be
00000050: 15c7 1ebe 3c1b 76be 8e13 a2be f2fe c13e
00000060: d0e0 8bbe 78fe de3c 6e0c 89be 32aa a5bd
00000070: d8f8 08be f7c3 0c3e d000 233d 5994 8a3d
00000080: 8d3a 763e aec5 aebe 4761 58be d551 0bbd
00000090: 7780 133d 5382 7a3e 145b a3bd 4bbc 393e
000000a0: 8f3d 6f3e 7582 d23c 442e 173e ff76 82be
000000b0: c63d b1be f468 6abe a3ea 6f3e e829 c13e
000000c0: 9409 f4bd c29a 2ebe e649 e6bd d372 1a3e
000000d0: 7c8d 5dbe d31e cdbe eb0f 82be 6d52 9e3e
000000e0: 5e71 80be 784e bdbe c645 453c 80ac 7f3d
000000f0: 9fcd b0bd 2c27 c1bd 580a 9dbd 15c0 88bc
00000100: 308f 8f3d 2217 413e 300f ca3e 5e68 113e
00000110: 9697 233e 1631 bdbd 74e0 b8be caf7 0a3b
00000120: 3df5 9abd 62fe 84be 8a6f b83e e888 ef3d
00000130: 406b c6bd a1b9 7e3e 94ff 76bb fa43 4dbc
00000140: fb5b 8dbd 647e 1f3e 28d7 66be 21b1 023e
00000150: 21af 6c3e 134e 2c3e 96d1 5dbe 8efb 2d3e
00000160: 8b03 963d 0231 1f3e 8855 a53e d979 fa3d
00000170: 14f3 92be 553f ab3d 0af1 d1be 07ad 08be
00000180: ab16 e1be 32f6 943e d79e b2be 4cae e63d
00000190: 19de a83e a921 863e f2cb 37bd 6e10 03be
000001a0: bcd4 033e b922 06be fb14 57be af4c f8bc
000001b0: 44da 093d 6e5e d5be 6b04 b73e 0d35 edbd
000001c0: dd27 123e b30b 0bbe b806 8abd ac62 57be
000001d0: 9918 153e 2777 6e3d bad4 aa3e 35cd b8be
000001e0: 44a4 b73d 0d24 cc3d 699f 16bc 0002 613e
000001f0: cb08 98bd fd8f 4cbd d447 c53e 5f11 78be
00000200: 50e0 c63e abd4 b93e 6068 c6be 0c97 54be
00000210: a5f4 a13e 7cac 3cbe 8bfe c1be 7833 36be
00000220: c9a4 23be 179b 683e e019 78be 26e5 4dbe
00000230: c601 c13e 1aa5 5dbe de1d 6b3e fb79 1f3e
00000240: 7f05 903e be49 383e 9886 8a3e efc8 663e
00000250: e54e fabd c8ea 8d3e 16cd ab3e 473d e73d
00000260: 2ad9 89bd a60f 083e 9b8c dabe c521 96be
00000270: 4a61 fa3c 9635 8cbe 7458 ffbc 9d85 b4be
00000280: ac17 aa3e 761f b53d 74e2 863e 851f 2a3e
00000290: ee50 ba3e db9d af3d 6ab6 3b3e 946e 7bbd
000002a0: a098 d43c 3cda adbd 1112 fb3d b99c bcbe
000002b0: 191c 3d3d 668e a73e fe63 2d3d 1bb2 b23e
000002c0: d86d 103e a4e1 b23e aa8e 49bd 32ed 823e
000002d0: 387e cbbd 37cf 5c3c 015c 4d3e b010 59be
000002e0: 645f 903e 0a85 afbe 6fa2 183e 0f2c 873e
000002f0: 64a3 e63a 6440 bebe 91ac e7bd 6b84 01be
00000300: f6c9 1abd 6b9f a63e 1913 7a3e 112e 4cbe
00000310: f347 153e 118b 993e a61a 5d3e 3276 7ebc
00000320: da37 f8bd 1d4f 383e 44e1 8c3e fee4 fc3d
00000330: f0f8 9b3e 1028 243e ea8a 9abe 997b 923c
00000340: 9b18 af3e f687 5abe b0e8 73be 2739 8e3d
00000350: ff57 debe 5e82 ba3e be50 273e c48b 9ebd
00000360: 93b3 913e 1c95 8b3e 379c 04bd b2c8 743e
00000370: 0035 84be 15e1 453e aead bcbd 6d5d b3bd
00000380: 5513 073e ee55 2a3e aac9 f73d a621 26be
00000390: d994 b9be 151a c2be 5000 72be db64 ffbc
000003a0: 6111 a23e 7ebf bcbe 4643 76be 921a d93d
000003b0: b91b 32bc f00a 9b3e 6056 243e 9394 77be
000003c0: c6a9 9b3e 4aa7 c9bd be42 e13e 046f a23d
000003d0: c54f 9dbe 6831 3d3e ddf2 babe a411 24be
000003e0: 5556 d9be 552e 403b 3882 15be 3c1e 5fbe
000003f0: c5e9 87be f2eb 93be e512 b13e 2db5 973c

conv1.lin_l.bias f4 [128]
0.014553475 0.0065965597 0.12090797 0.11324036 0.065260634 0.12799482 -0.22070599 -0.0001414232
0.12850446 0.27859566 0.12710527 -0.23480514 0.096584156 0.004510919 0.19520402 0.010361766
0.07358255 -0.11354459 -0.14402045 -0.019614272 -0.005345285 -0.27677467 0.029546795 -0.0033709444
0.118059546 -0.013275312 -0.34363213 0.00788096 -0.1419889 0.30369005 -0.20595184 0.11706025
-0.14498101 0.07494086 0.22888568 -0.17302988 0.12257592 -0.32712913 -0.0103989765 -0.15212926
-0.32938796 0.021449056 0.0022342762 0.047477074 0.05749786 0.26377103 -0.07600953 0.33866286
-0.049591742 -0.06979938 0.02620351 0.0012810477 0.34232736 -0.32198933 -0.20348887 0.2626992
0.01571504 -0.32538888 -0.012958068 -0.16573757 -0.21383774 -0.2938955 0.20799592 -0.2894615
0.018707551 0.34168902 0.010639872 0.34834066 0.013685383 0.17649582 -0.004509542 -0.16678612
0.113038026 0.004994183 0.24878076 0.0986924 -0.17307998 0.105642684 -0.007902497 0.17359415
0.06485341 0.0227165 0.18602791 0.15244856 0.0030335658 -0.06988922 0.10453968 0.262728
0.10884349 0.022857543 -0.34099466 -0.21129277 -0.026820023 0.007552785 -0.23210266 -0.013853849
0.0063992823 -0.113814846 0.08508247 0.2753269 0.2981677 -0.14517789 0.17181055 0.20099278
-0.004353297 0.09850817 -0.18305129 0.21901338 -0.056618594 0.026974905 -0.3076849 -0.25349247
-0.019569611 0.021369567 0.18043795 -0.06775706 -0.005206233 0.20901552 -0.270037 0.31461826
-0.28429547 -0.101595856 0.2875173 0.14985834 0.14603634 0.1762184 0.0063133747 -0.15582718
00000000: b371 6e3c f427 d83b 999e f73d 90ea e73d
00000010: 5ea7 853d 1311 033e c000 62be 004b 14b9
00000020: ac96 033e 17a4 8e3e e227 023e c270 70be
00000030: eacd c53d 55d0 933b 90e3 473e 66c4 293c
00000040: 73b2 963d 118a e8bd 197a 13be 1cae a0bc
00000050: 8027 afbb 69b5 8dbe 1f0c f23c 10eb 5cbb
00000060: 34c9 f13d b280 59bc 8df0 afbe 241f 013c
00000070: 8a65 11be 437d 9b3e 0ae5 52be 49bd ef3d
00000080: e775 14be 987a 993d 0261 6a3e bf2e 31be
00000090: 1509 fb3d 787d a7be 7860 2abc c6c7 1bbe
000000a0: 8aa5 a8be eeb5 af3c ef6c 123b 5277 423d
000000b0: e082 6b3d ff0c 873e e2aa 9bbd 3865 ad3e
000000c0: b620 4bbd faf2 8ebd bea8 d63c d4e8 a73a
000000d0: 8845 af3e c9db a4be 635f 50be 8280 863e
000000e0: d4bc 803c 5f99 a6be 144e 54bc 1cb7 29be
000000f0: 48f8 5abe 7979 96be e2fc 543e 4c34 94be
00000100: 9440 993c ddf1 ae3e dc52 2e3c b559 b23e
00000110: a838 603c 52bb 343e c8c4 93bb fbc9 2abe
00000120: 7b80 e73d 3ea6 a33b 62c0 7e3e 3e1f ca3d
00000130: e13b 31be 315b d83d 7a79 01bc aac2 313e
00000140: ddd1 843d f417 ba3c 1a7e 3e3e 7a1b 1c3e
00000150: cace 463b 1422 8fbd e618 d63d 4984 863e
00000160: 56e9 de3d be3f bb3c da96 aebe 225d 58be
00000170: aab5 dbbc 5a7d f73b 52ac 6dbe 41fb 62bc
00000180: 12b1 d13b c217 e9bd b83f ae3d a6f7 8c3e
00000190: 70a9 983e 83a9 14be 1bef 2f3e 0dd1 4d3e
000001a0: 1aa6 8ebb a7be c93d cc71 3bbe 0b45 603e
000001b0: e6e8 67bd 7afa dc3c e088 9dbe c4c9 81be
000001c0: 7350 a0bc 3b0f af3c bac4 383e 37c4 8abd
000001d0: 0c99 aabb 2a08 563e 4a42 8abe a515 a13e
000001e0: 2d8f 91be 7d11 d0bd 7835 933e 7774 193e
000001f0: 8d8a 153e 9972 343e 6de0 ce3b 2991 1fbe

conv1.lin_r.weight f4 [128, 6]
-0.086223446 -0.04221132 -0.3564109 0.15839669 0.060606282 0.34535682 0.065546684 0.023356445
0.28209662 -0.32356122 -0.29619667 -0.08720064 0.17515402 0.157084 0.03586966 0.15789737
-0.03235881 0.100021526 -0.2078145 -0.28672874 0.06772259 0.16207118 -0.41251075 -0.25125384
-0.15910277 -0.21934217 0.3133217 -0.1062158 -0.433255 0.21848433 0.07814924 -0.40887198
-0.102247864 -0.057259947 -0.23149173 -0.042919956 0.1559121 -0.40358347 0.34081867 -0.14298691
0.354945 -0.31523156 0.2577592 0.24613911 0.111684054 -0.058057718 -0.10103692 -0.12951551
0.12999903 -0.314915 -0.15541573 0.10684797 0.098649636 -0.14910316 -0.33179468 -0.2562233
-0.042196024 -0.17085889 -0.2330404 -0.026360277 0.38437468 -0.28580433 0.30790818 0.1934094
-0.24084613 0.31050286 -0.42450976 -0.41281834 0.40588903 0.103893355 -0.05106075 0.027020156
0.0870755 -0.22512607 -0.05606187 0.3187451 0.22195143 -0.24347554 -0.13549405 -0.11318364
0.15700677 0.089587 -0.039189108 -0.20210393 0.32027233 0.07243808 -0.063529335 -0.22064383
0.18899554 -0.39098516 0.14000633 0.08397146 -0.13078047 -0.2001622 -0.4106235 0.017736288
0.31446117 -0.18979487 -0.24963188 -0.09875269 0.32443297 0.032320954 0.2100292 0.03179545
-0.06587974 -0.43649206 -0.032246366 -0.3968876 -0.18866293 0.12450302 0.3167039 0.23150755
-0.12974498 -0.39067012 0.21357702 0.073863454 0.1697039 -0.093063496 0.16937721 0.1553478
0.23994248 0.36204457 -0.021714069 -0.28908744 -0.2832094 0.038981583 -0.07338051 0.021547545
0.3406215 0.1161934 -0.0052478565 0.25584692 0.06699105 -0.13304438 0.07403235 0.021587629
0.035482727 0.33777738 -0.05648847 -0.18967997 0.41200405 -0.03455487 -0.28491524 -0.28961235
0.28061768 0.23200609 0.35534096 0.19875729 -0.34689817 0.06421612 -0.44298643 0.036449395
0.30959457 -0.4249164 -0.153485 -0.2379866 -0.22000292 -0.012286171 0.2557449 0.20112501
0.35816744 -0.30980903 0.20282306 -0.1698247 0.39201835 0.33407965 -0.09856907 0.15041427
0.15689044 -0.3498268 0.351389 -0.099990554 0.37854192 -0.22816107 -0.3548701 0.45018598
0.28909025 0.1559305 -0.03411808 -0.39602354 -0.15188642 0.13407835 0.11659707 -0.20791686
0.3390021 -0.34910715 0.06822195 0.04361748 0.17595056 -0.092434965 0.20339417 -0.3447353
0.38462436 0.40383542 0.26770592 -0.3437984 -0.3270262 -0.35420933 -0.15156554 0.40687072
0.044679534 0.19706495 0.034849085 0.054183215 -0.2491801 -0.35374048 0.3174226 -0.33477274
-0.16107623 -0.117515296 0.07194735 0.1877739 0.2974169 -0.21413134 0.21949933 -0.15114237
0.0520292 -0.033159953 -0.45003656 0.13211669 0.33343604 -0.19617748 0.043150444 -0.3426169
-0.036538906 0.32664487 0.17032316 -0.14610602 -0.11903669 0.010934935 0.32396585 0.12504067
-0.1838173 -0.21859512 -0.15099041 -0.034439504 -0.12817597 0.025337417 0.41189536 -0.06411818
0.022106051 0.15531485 -0.28660795 -0.25366622 0.32409018 -0.13410567 0.16056259 -0.36834335
0.09211712 -0.21939869 0.38090578 -0.023882782 0.026521832 0.10136562 -0.29698354 0.25052252
00000000: eb95 b0bd c7e5 2cbd 7d7b b6be be32 223e
00000010: 4b3e 783d 9cd2 b03e 573d 863d 0456 bf3c
00000020: f86e 903e d1a9 a5be 17a7 97be 4096 b2bd
00000030: 935b 333e a1da 203e 11ec 123d d9af 213e
00000040: ac8a 04bd 16d8 cc3d 53cd 54be 1cce 92be
00000050: 24b2 8a3d fdf5 253e 9c34 d3be 58a4 80be
00000060: d6eb 22be 3c9b 60be b46b a03e ab87 d9bd
00000070: 99d3 ddbe 5bba 5f3e b50c a03d ab57 d1be
00000080: 5467 d1bd 6889 6abd 2b0c 6dbe d6cc 2fbd
00000090: 6ca7 1f3e 7ea2 cebe c97f ae3e 296b 12be
000000a0: 5abb b53e 0866 a1be 04f9 833e e40b 7c3e
000000b0: 9cba e43d eecd 6dbd 72ec cebd b79f 04be
000000c0: 771e 053e 8a3c a1be 4d25 1fbe 1cd3 da3d
000000d0: d208 ca3d 80ae 18be fee0 a9be b32f 83be
000000e0: bdd5 2cbd a2f5 2ebe 25a2 6ebe 82f1 d7bc
000000f0: c2cc c43e f254 92be 24a6 9d3e 1d0d 463e
00000100: 5ea0 76be 3bfa 9e3e 5859 d9be ed5c d3be
00000110: b0d0 cf3e 0ac6 d43d 1425 51bd 6059 dd3c
00000120: a454 b23d 7387 66be 22a1 65bd 8f32 a33e
00000130: 3c47 633e a751 79be f4be 0abe d3cc e7bd
00000140: 62c6 203e 6479 b73d c284 20bd 55f4 4ebe
00000150: bcfa a33e 6b5a 943d ab1b 82bd 75f0 61be
00000160: 0c88 413e 352f c8be d25d 0f3e 3bf9 ab3d
00000170: 51eb 05be 52f7 4cbe 3e3d d2be b14b 913c
00000180: 0e01 a13e 9659 42be 809f 7fbe da3e cabd
00000190: 141c a63e fa62 043d e511 573e f23b 023d
000001a0: f5eb 86bd e37b dfbe c414 04bd da34 cbbe
000001b0: db30 41be 70fb fe3d 0327 a23e 5110 6d3e
000001c0: dedb 04be ea05 c8be efb3 5a3e b945 973d
000001d0: dcc6 2d3e 1398 bebd 3871 2d3e 7e13 1f3e
000001e0: 7bb3 753e e85d b93e b4e1 b1bc 4503 94be
000001f0: d300 91be 27ab 1f3d 8548 96bd 7a84 b03c
00000200: f165 ae3e cef6 ed3d 36f6 abbb 5efe 823e
00000210: 9b32 893d c93c 08be 469e 973d 8ad8 b03c
00000220: 5656 113d 28f1 ac3e 7460 67bd 773b 42be
00000230: 32f2 d23e 6889 0dbd 69e0 91be 1248 94be
00000240: 1fad 8f3e 0193 6d3e 40ef b53e 0887 4b3e
00000250: a39c b1be be83 833d 1ecf e2be f64b 153d
00000260: 2e83 9e3e a48e d9be 2c2b 1dbe c2b2 73be
00000270: 7248 61be f04b 49bc fff0 823e b7f3 4d3e
00000280: b961 b73e 4a9f 9ebe d9b0 4f3e 87e6 2dbe
00000290: a1b6 c83e 7d0c ab3e 95de c9bd 3306 1a3e
000002a0: e3a7 203e 801c b3be 42e9 b33e d9c7 ccbd
000002b0: 3fd0 c13e 0ea3 69be 89b1 b5be c77e e63e
000002c0: a303 943e 3fac 1f3e 66bf 0bbd 99c3 cabe
000002d0: 1d88 1bbe d64b 093e 72ca ee3d 28e8 54be
000002e0: af91 ad3e 2cbe b2be f3b7 8b3d 3ea8 323d
000002f0: 622c 343e 8b4e bdbd 9046 503e 2581 b0be
00000300: 7ced c43e 84c3 ce3e c010 893e 5806 b0be
00000310: fa6f a7be ed5a b5be ff33 1bbe 5c51 d03e
00000320: e301 373d 65cb 493e eabd 0e3d 38ef 5d3d
00000330: 1129 7fbe 791d b5be 3785 a23e 5567 abbe
00000340: 2bf1 24be dcab f0bd 2259 933d cd47 403e
00000350: 0747 983e 3f45 5bbe 6fc4 603e 11c5 1abe
00000360: 921c 553d bbd2 07bd 316b e6be 9949 073e
00000370: 21b8 aa3e c0e2 48be 85be 303d 7b6b afbe
00000380: d2a9 15bd ff3d a73e 3269 2e3e d19c 15be
00000390: 82c9 f3bd 7128 333c dade a53e a90a 003e
000003a0: 9a3a 3cbe 66d7 5fbe 3b9d 1abe 7010 0dbd
000003b0: 9040 03be 6a90 cf3c f3e3 d23e 6450 83bd
000003c0: c017 b53c db0a 1f3e 47be 92be 8ae0 81be
000003d0: 26ef a53e ff52 09be 856a 243e 8097 bcbe
000003e0: e7a7 bc3d 0daa 60be 1506 c33e d3a5 c3bc
000003f0: 5044 d93c c798 cf3d 3a0e 98be 7d44 803e

conv2.lin_l.weight f4 [64, 128]
-0.023192963 -0.08234657 -0.019288355 0.00075712823 -0.10141909 -0.09082306 -0.02112426 -0.0035963922
-0.10056065 0.050932836 0.046716485 0.08768757 -0.042341694 -0.009435087 0.057908617 0.060430836
0.09421466 0.06998083 -0.054206993 0.1021417 0.07442993 0.011166142 -0.089756355 -0.01659407
0.014250494 -0.04285589 0.021812607 -0.11693061 -0.06639468 0.06848755 0.05613557 0.08442351
0.10364404 -0.035398833 0.0070471833 -0.032784477 0.057925373 -0.06520035 0.02015639 0.030443829
0.047654457 0.055192426 -0.036262613 0.0178569 0.05500567 0.054299306 0.004480782 0.028835503
0.053970143 0.051445268 -0.024240129 -0.022538036 0.02076358 -0.06405576 0.06497302 -0.031651575
-0.019157993 -0.026137056 -0.10933443 0.010802314 0.04850151 -0.00023753964 0.04566301 0.118448116
-0.09123524 0.012408197 -0.013412692 0.11438461 -0.06747022 0.0036247952 -0.031703454 0.08094594
0.06821347 0.124962255 -0.06351082 0.04742378 -0.08071872 -0.053678915 -0.002756097 -0.031159446
-0.004662742 -0.022398435 0.05279164 0.09915751 0.03904309 0.024350224 -0.041774645 0.02512499
0.08026475 0.07510212 0.02157154 -0.04152893 -0.023713054 -0.028854862 -0.051456455 -0.045710914
-0.01612661 0.10103084 -0.041737795 0.116861604 -0.04055287 0.024916412 -0.054423973 0.019972399
0.055776883 -0.05429166 -0.026197663 0.02451385 -0.012137739 0.01851391 -0.10746652 0.108490676
0.080621295 0.024844203 0.04815069 0.08301758 0.07884236 0.03428726 -0.016455162 0.08624515
0.022754792 -0.050636742 0.05952566 0.05072947 0.008774081 0.029821923 -0.031226521 4.7212932e-05
0.06601773 -0.019390821 -0.10355777 0.09228435 0.038557097 0.09871496 -0.011618851 0.05351171
0.03141 -0.043334696 0.050502427 0.07277834 -0.045832302 0.0016099559 -0.011894604 -0.06304025
-0.060249463 -0.08846123 -0.02094941 0.0030557264 -0.08466327 0.058380257 0.111091785 0.030369312
-0.10814573 -0.0038149673 0.016466277 0.061810367 -0.007019886 -0.035083547 -0.0301952 -0.00095825293
-0.06296882 -0.0065254723 -0.0043704305 -0.013315458 -0.048684824 0.120987825 -0.012704063 0.0051715765
0.027832408 0.10962756 -0.099126816 -0.027784942 0.026622387 -0.07101109 -0.07251748 -0.10970524
0.072509244 -0.10242682 -0.041024122 0.012796164 -0.02785255 0.018509079 -0.03378955 -0.011632184
0.109466285 -0.06851176 0.062580675 0.07828713 -0.023280077 -0.008494501 0.10836509 -0.014414721
-0.0016231968 -0.058083504 -0.023344677 -0.08860126 0.049394038 0.05286313 -0.096385546 -0.043277774
-0.042567838 -0.027842173 0.09563141 0.042827055 0.047936253 -0.07213407 0.0076532173 -0.08098165
0.00089041423 -0.032836754 -0.10603425 -0.10576573 -0.050009206 -0.09684299 0.015789932 -0.048986576
-0.11501996 -0.064918585 0.017898928 -0.015044572 -0.09888452 0.04017324 0.039910402 -0.04797083
-0.08832047 -0.10493294 -0.046307698 -0.0077515002 0.045149364 -0.006325987 0.018547278 0.03139603
-0.087205596 0.041580014 0.001870949 -0.030131828 -0.004978305 0.06058345 -0.011786318 0.049409214
0.017639609 -0.050414205 -0.021438416 0.011112787 -0.13785335 0.018874172 -0.035519052 -0.077685416
-0.053983584 -0.0037074354 -0.08362377 0.0019170977 -0.008212378 0.027153786 -0.1046216 -0.14319234
00000000: 2bff bdbc 52a5 a8bd 9d02 9ebc 047a 463a
00000010: d0b4 cfbd 7101 babd c90c adbc 73b1 6bbb
00000020: bef2 cdbd f39e 503d c959 3f3d 8a95 b33d
00000030: 7c6e 2dbd a095 1abc 9631 6d3d 5386 773d
00000040: 9ef3 c03d 1c52 8f3d 2708 5ebd ab2f d13d
00000050: b86e 983d 32f2 363c 2ed2 b7bd 49f0 87bc
00000060: e77a 693c a889 2fbd 5ab0 b23c 5179 efbd
00000070: eff9 87bd 3343 8c3d 69ee 653d 3ce6 ac3d
00000080: 5443 d43d 5efe 10bd 0fec e63b 0449 06bd
00000090: 2843 6d3d c387 85bd 031f a53c 5665 f93c
000000a0: 5231 433d 7411 623d 1b88 14bd a248 923c
000000b0: a04d 613d f368 5e3d 86d3 923b 6f38 ec3c
000000c0: cc0f 5d3d 46b8 523d 3c93 c6bc b0a1 b8bc
000000d0: 6218 aa3c ab2f 83bd 9310 853d 15a5 01bd
000000e0: 39f1 9cbc 611d d6bc bbea dfbd 30fc 303c
000000f0: 85a9 463d 1014 79b9 2309 3b3d ed94 f23d
00000100: 8bd9 babd c04b 4b3c e8c0 5bbc 7a42 ea3d
00000110: d42d 8abd f98d 6d3b 7bdb 01bd fcc6 a53d
00000120: 81b3 8b3d 36ec ff3d f611 82bd 703f 423d
00000130: db4f a5bd 6cde 5bbd a29f 34bb 1842 ffbc
00000140: eac9 98bb ec7c b7bc 0c3c 583d 1813 cb3d
00000150: a6eb 1f3d 1f7a c73c e41b 2bbd ecd2 cd3c
00000160: d861 a43d 24cf 993d ccb6 b03c 3d1a 2abd
00000170: e141 c2bc 0861 ecbc 01c4 52bd 5e3b 3bbd
00000180: f41b 84bc 42e9 ce3d 40f5 2abd 2355 ef3d
00000190: c41a 26bd 811d cc3c aceb 5ebd 289d a33c
000001a0: 4d76 643d ef60 5ebd 7b9c d6bc 45d1 c83c
000001b0: 5edd 46bc 7caa 973c 6817 dcbd 5c30 de3d
000001c0: c71c a53d 1286 cb3c a839 453d 1f05 aa3d
000001d0: 1a78 a13d cc70 0c3d facc 86bc 4ca1 b03d
000001e0: 4268 ba3c 7968 4fbd 2ed1 733d b4c9 4f3d
000001f0: 2ac1 0f3c 1b4d f43c c3ce ffbc 8006 4638
00000200: 4e34 873d 80d9 9ebc 1916 d4bd 94ff bc3d
00000210: 0cee 1d3d 122b ca3d fe5c 3ebc 182f 5b3d
00000220: c6a7 003d b97f 31bd a2db 4e3d cf0c 953d
00000230: a7ba 3bbd 2805 d33a 96e1 42bc 3f1b 81bd
00000240: 24c8 76bd 292b b5bd 199e abbc 9542 483b
00000250: f063 adbd 2320 6f3d 1784 e33d 10c9 f83c
00000260: 827b ddbd 8804 7abb 49e4 863c de2c 7d3d
00000270: 1207 e6bb c4b3 0fbd ed5b f7bc 4433 7bba
00000280: ccf5 80bd a1d3 d5bb d435 8fbb 1429 5abc
00000290: bd69 47bd 77c8 f73d b424 50bc 5476 a93b
000002a0: ca00 e43c 6a84 e03d 0003 cbbd 3f9d e3bc
000002b0: 3117 da3c 436e 91bd 0b84 94bd 24ad e0bd
000002c0: ba7f 943d 27c5 d1bd e908 28bd 00a7 513c
000002d0: 082b e4bc 5aa0 973c e966 0abd ea94 3ebc
000002e0: dc2f e03d e54f 8cbd 4c2a 803d 0155 a03d
000002f0: dcb5 bebc 852c 0bbc 84ee dd3d b92b 6cbc
00000300: 72c1 d4ba f8e8 6dbd 563d bfbc 9474 b5bd
00000310: 6751 4a3d 0287 583d c965 c5bd 0944 31bd
00000320: 9d5b 2ebd 4515 e4bc 67da c33d 6c6b 2f3d
00000330: ce58 443d 07bb 93bd d7c7 fa3b b5d9 a5bd
00000340: b06a 693a d57f 06bd 7c28 d9bd b49b d8bd
00000350: 74d6 4cbd 9e55 c6bd e359 813c 26a6 48bd
00000360: 968f ebbd 09f4 84bd c6a0 923c 827d 76bc
00000370: f883 cabd b28c 243d 1779 233d 107d 44bd
00000380: 5de1 b4bd 15e7 d6bd 24ad 3dbd 4c00 febb
00000390: 8aee 383d 3a4a cfbb 76f0 973c 2099 003d
000003a0: d998 b2bd ce4f 2a3d a23a f53a 06d7 f6bc
000003b0: 0d21 a3bb 5a26 783d 671b 41bc 5161 4a3d
000003c0: f180 903c 207f 4ebd 9e9f afbc 6812 363c
000003d0: 6e29 0dbe 029e 9a3c 6d7c 11bd 8819 9fbd
000003e0: e41d 5dbd 72f8 72bb f042 abbd 2047 fb3a
000003f0: 368d 06bc 9e71 de3c d943 d6bd 03a1 12be

conv2.lin_l.bias f4 [64]
-0.0056274743 0.012180779 -0.0011049958 -5.2260235e-05 -0.0033153142 0.013704916 -0.009245495 -0.023056718
0.0028942241 -0.009540776 -0.015376707 0.013454258 0.0013821793 0.0076689706 0.01581717 0.0038353754
0.0074980725 0.018652517 -0.01056131 -0.007198208 0.006713464 0.0018477594 0.012197803 0.0013463153
0.012691437 0.012641074 0.013750462 -0.02142149 -0.024706211 0.013713845 0.0079618 0.00198064
-0.0059906393 0.013419456 -0.029432418 -0.0035800105 0.013715501 0.003249451 0.013645858 0.0075778794
0.00059883576 -0.00039004907 0.0042071575 -0.017801378 -0.015970316 0.005476848 -0.02460609 0.00818056
-0.0024658805 -0.0072507896 -0.009472681 -0.0071507627 0.013424422 -0.028236909 0.0058156354 -0.00293889
0.009935384 -0.004183217 -0.026965361 -0.0067403605 0.0019835543 0.01369723 -0.0053758286 -0.0074339565
00000000: ad66 b8bb e491 473c 82d5 90ba 0032 5bb8
00000010: be45 59bb 968a 603c 6b7a 17bc 71e1 bcbc
00000020: 06ad 3d3b ea50 1cbc 95ee 7bbc 406f 5c3c
00000030: 3e2a b53a fd4b fb3b 0293 813c ec5a 7b3b
00000040: 64b2 f53b 2acd 983c 5809 2dbc f2de ebbb
00000050: 9efc db3b 8430 f23a 4bd9 473c d876 b03a
00000060: bfef 4f3c 821c 4f3c 9e49 613c 1f7c afbc
00000070: ae64 cabc 09b0 603c 3672 023c a0cd 013b
00000080: 204d c4bb 47dd 5b3c 411c f1bc 9c9e 6abb
00000090: fbb6 603c bef4 543b e092 5f3c dc4f f83b
000000a0: 30fb 1c3a 807f ccb9 32dc 893b 32d4 91bc
000000b0: 2ed4 82bc 2277 b33b b692 c9bc c107 063c
000000c0: 9c9a 21bb 0898 edbb 4e33 1bbc f250 eabb
000000d0: 1bf2 5b3c 1751 e7bc 1691 be3b 649a 40bb
000000e0: 05c8 223c 5e13 89bb 76e6 dcbc 3ede dcbb
000000f0: 85fe 013b 596a 603c b827 b0bb 8c98 f3bb

conv2.lin_r.weight f4 [64, 128]
-0.044257224 -0.111182064 -0.071777344 -0.0069760587 -0.085787006 -0.042090476 -0.030019138 -0.020402584
-0.04951873 -0.038070805 -0.013376188 0.0038543874 -0.022571111 0.013439484 0.078009695 0.0028237384
0.097906366 -0.034718726 -0.0017111036 0.09528588 -0.02006347 0.0021367024 -0.11816632 0.052423444
0.021041272 0.010988399 0.02311546 -0.054948464 -0.1198971 0.018476337 0.028624473 -0.035925962
0.11224126 -0.03242156 0.10320428 0.031874403 -0.036803253 -0.029926568 -0.10762464 -0.008364455
-0.10238993 0.045002338 0.03054315 -0.035724048 -0.0026658482 0.08443624 -0.030167729 -0.044915296
0.018448096 -0.018075423 -0.032871455 -0.004608853 0.0891157 0.0011941539 -0.003974049 0.053123944
-0.10485358 -0.035036962 0.009586448 -0.09854706 -0.08717402 -0.080683865 -0.04516306 -0.019651376
0.09440219 0.04092401 -0.0848049 0.026406758 -0.03546943 -0.039392676 -0.07680516 0.03355744
0.008346522 0.09413435 0.044259086 -0.0029202169 0.048533496 -0.104217246 0.045065667 -0.06702623
0.036364086 -0.037007462 0.1092589 -0.09537434 0.0996626 0.056923606 -0.06328562 -0.04078923
0.040059503 -0.10015444 0.0073057218 -0.0957313 -0.075408675 0.09714389 0.030496484 -0.008065632
0.0053564194 -0.003314227 0.05661326 -0.109773934 -0.106666066 0.0645601 -0.09015196 -0.031032993
-0.04122105 0.08300768 0.02227212 -0.04842127 -0.08737663 0.118603356 0.11943783 0.111939654
0.021922033 0.05481762 0.014232028 -0.046116184 0.008684817 0.069460034 0.017496895 0.07216678
-0.061701257 -0.09088706 -0.04585183 0.014695242 0.030649878 0.025834173 -0.06998298 0.017474305
0.101230666 0.0073141605 0.043712154 -0.008659989 0.11003446 0.015170699 -0.06031632 0.053770438
0.0066136494 -0.092089795 -0.04959305 -0.0649656 0.07155036 -0.026738137 -0.06949152 -0.088171385
-0.11055823 0.0039025825 0.050382216 -0.07211379 -0.08016537 -0.051492862 0.07278098 0.0061536403
-0.09696037 -0.039807253 0.027464963 -0.045740206 -0.041369952 0.000851359 -0.05813289 -0.09596232
-0.019380337 -0.0055285622 -0.039342493 0.04896094 0.033473916 -0.08913993 0.08820271 -0.11404882
0.014582888 -0.02102387 -0.03838899 0.034990463 -0.05226035 -0.037537478 0.0030585395 -0.041541632
-0.033678334 0.011617672 0.06693235 0.0854433 -0.07888269 -0.011771608 0.017368838 0.013065567
0.078456044 -0.055677958 0.052773416 -0.010300585 0.06963279 0.021826752 0.045040186 -0.005690176
-0.013409436 0.029062014 0.011125135 -0.09810545 -0.045836587 -0.040911537 0.07938815 -0.049424205
-0.10220172 -0.10006371 0.10805075 0.05345569 -0.053305488 0.012874866 0.019817296 -0.0051729525
-0.010936243 0.030873403 -0.00033100694 0.062136326 -0.014246929 -0.120761454 0.10160003 -0.017417906
0.00080145407 0.09539804 -0.042946074 0.054866534 0.00975564 0.0044046827 0.08129434 0.07817018
-0.113718905 -0.04244662 -0.063185014 -0.003922435 -0.0030628194 -0.083782375 0.045916546 0.014587902
-0.029223103 -0.07457356 -0.008871406 -0.108757876 0.06550001 -0.0030884312 0.018833723 0.004560636
-0.039303854 0.0484718 -0.02294688 0.0018250141 -0.12135797 0.034174725 0.08749133 -0.068933636
0.04838683 0.11298953 0.034001965 -0.11582437 -0.106769085 -0.04941088 -0.033786 3.7749298e-05
00000000: 1047 35bd 6cb3 e3bd 0000 93bd 6c97 e4bb
00000010: 19b1 afbd 1067 2cbd b2ea f5bc 5223 a7bc
00000020: 27d4 4abd 22f0 1bbd cd27 5bbc e499 7c3b
00000030: 0de7 b8bc 4831 5c3c 8cc3 9f3d 780e 393b
00000040: 2283 c83d 3935 0ebd 1c47 e0ba 3e25 c33d
00000050: 255c a4bc eb07 0c3b 2f01 f2bd f7b9 563d
00000060: bf5e ac3c b008 343c a25c bd3c a411 61bd
00000070: 9c8c f5bd b05b 973c df7d ea3c 1a27 13bd
00000080: bfde e53d 78cc 04bd c45c d33d bc8e 023d
00000090: 02bf 16bd 9028 f5bc 4f6a dcbd 110b 09bc
000000a0: d0b1 d1bd 5f54 383d a135 fa3c 6153 12bd
000000b0: 83b5 2ebb e8ec ac3d 5022 f7bc 1af9 37bd
000000c0: 7620 973c e912 94bc 38a4 06bd dc05 97bb
000000d0: 4b82 b63d 2885 9c3a bd38 82bb 7e98 593d
000000e0: 79bd d6bd eb82 0fbd 7a10 1d3c 0ad3 c9bd
000000f0: 4b88 b2bd 953d a5bd e7fc 38bd ecfb a0bc
00000100: ef55 c13d ef9f 273d 31ae adbd fc52 d83c
00000110: 6548 11bd 375a 21bd 064c 9dbd 8773 093d
00000120: dabf 083c 83c9 c03d 0449 353d 1c61 3fbb
00000130: 0fcb 463d da6f d5bd c796 383d 0c45 89bd
00000140: 82f2 143d 2395 17bd 21c3 df3d 9f53 c3bd
00000150: e81b cc3d ba28 693d e49b 81bd 9c12 27bd
00000160: 6f15 243d c51d cdbd d664 ef3b c60e c4bd
00000170: dd6f 9abd 60f3 c63d c3d3 f93c b625 04bc
00000180: e784 af3b 8133 59bb 4ee3 673d 28d1 e0bd
00000190: bd73 dabd 1638 843d 97a1 b8bd e738 febc
000001a0: 67d7 28bd eeff a93d 0574 b63c 6255 46bd
000001b0: 85f2 b2bd 51e6 f23d d29b f43d 9e40 e53d
000001c0: d695 b33c 7188 603d 742d 693c 53e4 3cbd
000001d0: c34a 0e3c 1041 8e3d a655 8f3c 2dcc 933d
000001e0: 75ba 7cbd ff22 babd 21cf 3bbd 50c4 703c
000001f0: 7415 fb3c 30a2 d33c 3d53 8fbd 4626 8f3c
00000200: 0652 cf3d a0ab ef3b 840b 333d a0e2 0dbc
00000210: bf59 e13d 868e 783c 3f0e 77bd 643e 5c3d
00000220: 50b7 d83b 9399 bcbd 1522 4bbd af0c 85bd
00000230: ff88 923d f009 dbbc 9251 8ebd 3393 b4bd
00000240: 5a6c e2bd 78c2 7f3b 955d 4e3d 65b0 93bd
00000250: be2d a4bd 2eea 52bd 320e 953d 7aa4 c93b
00000260: 2993 c6bd ee0c 23bd 34fe e03c 155a 3bbd
00000270: 8a73 29bd bc2d 5f3a c11c 6ebd e587 c4bd
00000280: 83c3 9ebc f128 b5bb 9825 21bd 448b 483d
00000290: f21b 093d ff8e b6bd 9fa3 b43d 6e92 e9bd
000002a0: 11ed 6e3c 403a acbc c63d 1dbd 2952 0f3d
000002b0: f30e 56bd e6c0 19bd c771 483b 8f27 2abd
000002c0: 4bf2 09bd 0c58 3e3c d413 893d e6fc ae3d
000002d0: 3f8d a1bd b4dd 40bc 1849 8e3c f610 563c
000002e0: 90ad a03d 920e 64bd f028 583d c9c3 28bc
000002f0: a39b 8e3d 04ce b23c 0f7c 383d a874 babb
00000300: 40b3 5bbc 7613 ee3c 3346 363c 83eb c8bd
00000310: 25bf 3bbd db92 27bd 4196 a23d 0971 4abd
00000320: 234f d1bd 34ee ccbd b649 dd3d 5bf4 5a3d
00000330: db56 5abd 1af1 523c e257 a23c df81 a9bb
00000340: ee2d 33bc 38ea fc3c 008b adb9 a982 7e3d
00000350: f46b 69bc c851 f7bd ad13 d03d ffaf 8ebc
00000360: ac18 523a 0c60 c33d 39e8 2fbd bbbb 603d
00000370: 1fd6 1f3c 2855 903b a67d a63d b017 a03d
00000380: 75e5 e8bd 82dc 2dbd 2567 81bd c587 80bb
00000390: 95b9 48bb 1896 abbd fd12 3c3d 1902 6f3c
000003a0: 4a65 efbc 06ba 98bd 6059 11bc 73bc debd
000003b0: df24 863d 4767 4abb 2e49 9a3c 6371 953b
000003c0: 14fd 20bd 5e8a 463d 18fb bbbc 5035 ef3a
000003d0: 878a f8bd ccfa 0b3d a82e b33d 142d 8dbd
000003e0: 4531 463d 0e67 e73d a545 0b3d 5435 edbd
000003f0: c0a9 dabd 1063 4abd 3063 0abd 0055 1e38

bn1.weight f4 [128]
1.0407116 0.9618368 1.0324925 1.0014409 0.96679795 0.96700984 0.9639676 0.9660334
0.9481946 1.0410366 0.96761334 0.9612572 1.0308892 0.97245693 0.9793687 0.9638569
1.0382996 1.0350473 1.0247465 0.9678744 1.0317605 1.0357094 1.0401788 0.96624404
1.0235404 0.96646136 0.9747376 1.0270011 0.96175265 1.0363566 1.0405748 1.016314
1.0342214 1.0248054 1.0510628 0.9684554 0.9643065 1.0071874 0.9641202 1.0375983
0.9590455 0.96785426 0.9627524 0.9826709 0.9546433 0.9663413 1.0328207 0.96129787
0.96597064 0.9692129 1.041512 0.96578234 1.031749 0.9973689 1.025946 1.0466831
0.9704391 1.0116934 1.0330656 1.0397065 0.96762407 0.973394 0.9740978 1.0310098
1.0268364 0.9731436 1.0347463 1.0213343 0.96131223 0.95542496 0.97118527 1.025883
1.0322635 1.0380986 1.024028 0.9677713 1.0376942 1.0393332 0.9610109 1.0370841
0.9606387 0.96498924 0.9666647 1.0249304 0.9725508 1.0320534 1.0289929 1.0341992
1.0320565 0.9634505 1.0270114 1.0482141 0.9517434 1.0468285 1.0309021 0.96274877
1.0406041 0.9526409 0.9619951 0.95802295 0.9649269 0.96593565 1.0253978 1.0557337
1.0371916 0.9942329 1.0366837 1.0385735 0.9680868 0.9690066 0.96571875 1.0423723
0.9646039 1.0354366 1.0191054 0.9671255 1.0338489 1.0081829 0.94411165 0.9853393
0.95038736 1.0297433 1.0302646 1.0384102 0.9689759 0.9605278 0.97048783 0.96717834
00000000: 0a36 853f f03a 763f b728 843f 372f 803f
00000010: 1280 773f f58d 773f 95c6 763f f74d 773f
00000020: e2bc 723f b040 853f 82b5 773f f414 763f
00000030: 2df4 833f f0f2 783f e8b7 7a3f 53bf 763f
00000040: 00e7 843f 6e7c 843f e52a 833f 9ec6 773f
00000050: ba10 843f 2092 843f 9424 853f c55b 773f
00000060: 5f03 833f 036a 773f 6788 793f c674 833f
00000070: 6c35 763f 55a7 843f 8e31 853f 9416 823f
00000080: 5e61 843f d32c 833f 3a89 863f b1ec 773f
00000090: cadc 763f 84eb 803f 95d0 763f 05d0 843f
000000a0: 0284 753f 4cc5 773f f176 763f 5290 7b3f
000000b0: 8163 743f 2562 773f 7833 843f 9e17 763f
000000c0: da49 773f 561e 783f 4450 853f 833d 773f
000000d0: 5a10 843f 9153 7f3f 3352 833f b6f9 853f
000000e0: b26e 783f 2b7f 813f 7e3b 843f 1a15 853f
000000f0: 36b6 773f 5930 793f 795e 793f 21f8 833f
00000100: 606f 833f f01f 793f 9172 843f 15bb 823f
00000110: 8f18 763f bb96 743f 999f 783f 2250 833f
00000120: 3621 843f 6ae0 843f 5913 833f dcbf 773f
00000130: 2ad3 843f df08 853f cf04 763f 2cbf 843f
00000140: 6bec 753f 8909 773f 5677 773f eb30 833f
00000150: 17f9 783f 531a 843f 0ab6 833f a460 843f
00000160: 6d1a 843f b1a4 763f 1c75 833f e12b 863f
00000170: 75a5 733f 7afe 853f 9af4 833f b476 763f
00000180: 8432 853f 46e0 733f 5045 763f fe40 753f
00000190: 7305 773f 8f47 773f 3c40 833f 4822 873f
000001a0: b2c2 843f 0c86 7e3f 0db2 843f faef 843f
000001b0: 89d4 773f d110 783f 5839 773f 756c 853f
000001c0: 48f0 763f 3089 843f 0c72 823f 8995 773f
000001d0: 2955 843f 230c 813f 4db1 713f 323f 7c3f
000001e0: 964c 733f a1ce 833f b6df 833f a0ea 843f
000001f0: ce0e 783f 26e5 753f e471 783f 0099 773f

bn1.bias f4 [128]
-0.027434055 -0.038109846 0.035994295 0.026384907 -0.0307964 -0.029261725 -0.035773072 -0.031258658
0.045991033 0.04987934 -0.026832962 -0.04174167 0.03809834 -0.025702864 0.0008372143 -0.042616922
0.040944267 0.036611997 0.03978531 -0.034725904 0.030086124 0.035547525 0.040915854 -0.026324872
0.008872019 -0.032506503 0.030898811 0.031052018 -0.033619277 0.05692942 0.040540967 -0.0049689487
0.040076077 -0.056915954 -0.009979182 -0.023725726 -0.034286495 0.040969085 0.03265657 0.040888876
0.03086968 -0.029792583 -0.036363333 -0.01241227 -0.034905516 -0.027140684 0.020468887 -0.03704359
-0.032814093 -0.02981367 0.047800727 -0.030215146 0.034605727 0.024875624 0.0321322 0.052566886
-0.004418358 0.056271076 0.040286627 0.041440055 -0.03189082 -0.023360953 -0.02284106 0.025776224
0.03756587 -0.022682244 0.03554405 0.042831898 -0.035461977 0.020951046 -0.011032704 0.011287562
0.03072874 0.04126077 0.02381986 -0.03332728 0.04381206 -0.035851076 -0.027516447 -0.034549646
-0.034842324 -0.031465795 -0.02997069 0.032573085 -0.027786521 0.03737092 0.04494121 0.04267965
0.045370616 -0.031260733 0.050578773 0.052557465 -0.03965987 0.048233226 0.03863949 0.018103622
0.045426976 -0.03240329 -0.017760988 -0.033429116 -0.035391662 -0.03562773 0.033274036 0.057523858
0.04053 0.04642637 0.038079277 0.044095837 0.037055943 -0.028936073 -0.029582208 0.05175372
-0.03623824 0.033961207 -0.053646777 -0.032483842 0.037119076 -0.012505139 0.037499297 0.009317916
0.03541852 0.03765498 0.0052500553 0.03852982 -0.002197748 -0.03205298 -0.054303687 -0.03276605
00000000: 62bd e0bc 1219 1cbd c16e 133d 2925 d83c
00000010: bb48 fcbc 49b6 efbc c986 12bd 1409 00bd
00000020: 1861 3c3d 474e 4c3d cdd0 dbbc 50f9 2abd
00000030: 010d 1c3d d08e d2bc 8078 5b3a 158f 2ebd
00000040: 2db5 273d 76f6 153d ecf5 223d c03c 0ebd
00000050: 2d77 f63c 489a 113d 6297 273d 42a7 d7bc
00000060: f25b 113c 8a25 05bd 811f fd3c cd60 fe3c
00000070: 5eb4 09bd d32e 693d 490e 263d 90d2 a2bb
00000080: d026 243d b420 69bd b97f 23bc 745c c2bc
00000090: ff6f 0cbd 33cf 273d e5c2 053d 187b 273d
000000a0: 69e2 fc3c 930f f4bc b8f1 14bd d55c 4bbc
000000b0: 16f9 0ebd 2456 debc 5eae a73c 05bb 17bd
000000c0: 1268 06bd cc3b f4bc b2ca 433d c185 f7bc
000000d0: bcbe 0d3d f7c7 cb3c 0e9d 033d 6050 573d
000000e0: e0c7 90bb 807c 663d 9703 253d 0cbd 293d
000000f0: f39f 02bd 785f bfbc 2d1d bbbc a928 d33c
00000100: abde 193d 1dd0 b9bc a396 113d 8070 2f3d
00000110: 9440 11bd 87a1 ab3c 84c2 34bc 77ef 383c
00000120: d7ba fb3c 0e01 293d de21 c33c 3082 08bd
00000130: 4674 333d 94d8 12bd 2c6a e1bc ee83 0dbd
00000140: d3b6 0ebd 47e2 00bd 1885 f5bc 5b6b 053d
00000150: 8fa0 e3bc 4012 193d 4614 383d dbd0 2e3d
00000160: 8ad6 393d 410b 00bd b02b 4f3d 7f46 573d
00000170: 6372 22bd 3490 453d 7144 1e3d 0c4e 943c
00000180: a311 3a3d 50b9 04bd 7e7f 91bc f8ec 08bd
00000190: d9f6 10bd 62ee 11bd 5b4a 083d 239e 6b3d
000001a0: c902 263d 9429 3e3d 04f9 1b3d d69d 343d
000001b0: f9c7 173d 580b edbc 6356 f2bc b5fb 533d
000001c0: 8c6e 14bd e81a 0b3d b9bc 5bbd c70d 05bd
000001d0: 2c0a 183d 5be2 4cbc dd98 193d 2caa 183c
000001e0: 0313 113d 1c3c 1a3d a808 ac3b 72d1 1d3d
000001f0: 1808 10bb fc49 03bd 8b6d 5ebd b235 06bd

bn1.running_mean f4 [128]
0.033068947 -0.22619268 -0.2113614 -0.6518623 0.05837729 0.12797013 0.35501236 -0.4256403
-0.23261167 0.6616589 -0.07863651 0.12847827 -0.31350574 0.0062310696 0.45921084 0.17950161
0.73273045 -0.29169017 -0.8411536 -0.42688546 0.23663141 -0.6394857 -0.39286393 -0.32004997
0.49011594 0.16865075 -0.6964963 0.3051316 -0.24567729 0.94152135 -0.093586914 0.4722777
0.5914838 0.041138295 0.35741183 0.051645722 0.65621895 -0.32041615 -0.7452296 0.18594137
-0.29731745 -0.3255233 -0.5265606 -0.19978829 -0.41434172 0.37283415 0.54442936 -0.20992346
-0.7292474 0.30786085 -0.093342654 -0.26089403 0.6517029 -0.8525492 -0.20218435 -0.21907048
-0.4950523 0.3230175 -0.29490587 -0.5182758 -0.8981585 -0.7301186 0.14011173 -0.32780445
0.03787589 0.7578531 -0.047580127 1.0483779 -0.48176223 -0.1452152 -0.7763661 0.26108274
-0.040649988 0.45980766 -0.44115818 0.10906084 -0.39886147 0.16012552 -0.28155124 -0.4674519
0.22893524 -0.18414266 0.19511515 -0.4476794 0.18509454 0.5220792 -0.45800477 0.93782127
0.7560431 -0.62217075 -0.07888959 -0.7717672 -0.50366706 -0.14416504 -0.06759377 -0.14980741
0.3794033 -0.7653612 0.52003103 -0.058985446 0.0042595104 -0.42652923 -0.4360126 -0.64964575
0.43388224 0.16260993 -0.90373623 0.92089325 -0.37001652 0.113581344 0.15241821 0.23560917
-0.7875127 0.155866 0.1677318 0.49011526 0.5222431 0.26371714 -0.9251808 0.7405575
-0.7163335 -0.0037236682 -0.56839335 0.3707112 0.7065664 0.44079688 -0.40586674 0.4210295
00000000: 4e73 073d 0e9f 67be 1f6f 58be 73e0 26bf
00000010: 061d 6f3d 9a0a 033e 2ec4 b53e 87ed d9be
00000020: c131 6ebe 7a62 293f 2e0c a1bd cf8f 033e
00000030: d383 a0be 002e cc3b af1d eb3e 45cf 373e
00000040: 3994 3b3f 6a58 95be d855 57bf bb90 dabe
00000050: 814f 723e 56b5 23bf 7625 c9be 97dd a3be
00000060: 7af0 fa3e c8b2 2c3e 954d 32bf 363a 9c3e
00000070: d492 7bbe 8b07 713f 7faa bfbd 62ce f13e
00000080: 7b6b 173f a180 283d affe b63e 778a 533d
00000090: f7fd 273f 960d a4be 5ec7 3ebf 6a67 3e3e
000000a0: fe39 98be fdaa a6be adcc 06bf 4d95 4cbe
000000b0: 9924 d4be 1ee4 be3e b95f 0b3f 2df6 56be
000000c0: f5af 3abf f09f 9d3e 6f2a bfbd e793 85be
000000d0: 00d6 263f aa40 5abf 6a09 4fbe 0354 60be
000000e0: 7f77 fdbe 8d62 a53e e7fd 96be b9ad 04bf
000000f0: b7ed 65bf 0de9 3abf 7379 0f3e fcd5 a7be
00000100: c023 1b3d a902 423f 61e3 42bd 3f31 863f
00000110: 8aa9 f6be 4bb3 14be eebf 46bf a3ac 853e
00000120: 9a80 26bd e96b eb3e 7cdf e1be 4a5b df3d
00000130: 9237 ccbe f2f7 233e 7c27 90be db55 efbe
00000140: 006e 6a3e e58f 3cbe 44cc 473e 3c36 e5be
00000150: 6c89 3d3e fca6 053f 9a7f eabe 0e15 703f
00000160: 0a8c 413f 9546 1fbf de90 a1bd 8992 45bf
00000170: 53f0 00bf 00a0 13be 9a6e 8abd 1d67 19be
00000180: 2641 c23e b6ee 43bf c120 053f b99a 71bd
00000190: 5d93 8b3b 0a62 dabe 0b3d dfbe 2f4f 26bf
000001a0: d025 de3e 3883 263e 425b 67bf a9bf 6b3f
000001b0: ce72 bdbe 569d e83d 8513 1c3e 8843 713e
000001c0: 6f9a 49bf 569b 1f3e e3c1 2b3e 63f0 fa3e
000001d0: b9b1 053f ef05 873e a6d8 6cbf 2d95 3d3f
000001e0: a261 37bf c908 74bb 3a82 11bf dccd bd3e
000001f0: 89e1 343f 21b0 e13e c4cd cfbe 2e91 d73e

bn1.running_var f4 [128]
0.62597555 0.7674527 1.2848948 5.1593323 0.7936027 0.727395 2.7917666 1.8033609
0.8661689 2.8221622 1.3856186 1.0499393 2.008368 0.6376522 1.5445838 0.8267976
4.097034 1.0301355 3.943775 1.170673 0.76343215 3.7023458 1.8263574 1.4852842
0.95494604 1.0203197 1.4550794 0.95079577 0.8250803 2.8917599 1.4017689 2.4793253
2.6353748 0.7236511 1.5445585 0.9029798 2.6017792 0.7015546 2.533544 1.5423899
0.9242852 0.8824571 3.2323923 1.3953995 3.3892727 0.9289082 3.1284287 2.1360662
4.49291 2.1827595 1.0456133 1.931503 3.0244515 2.7503545 0.8262326 2.140083
1.4069538 1.8350918 1.047419 2.525714 5.217246 4.239697 0.66691536 0.7174391
0.80795723 2.0029497 0.8921195 4.4168983 2.53301 1.0756298 5.1857443 0.98637885
0.77400726 2.3165004 2.4247324 0.8995264 0.9048253 0.65556747 0.8584166 2.7985816
0.7562713 0.75840205 1.2204475 1.9850502 1.9087583 2.7002008 2.2569544 4.4533815
3.531777 4.68146 0.7385295 3.6663208 3.3823946 1.0823988 0.7894551 0.99690044
2.0364535 2.2456353 2.51608 0.9320586 1.1142527 0.83006185 6.3405995 3.4162517
2.659404 0.85453963 3.323151 2.89244 3.5222216 1.2943656 0.83137304 1.3617867
3.3570025 0.7769704 0.6967531 2.9866757 2.9329941 0.7953962 3.8006563 3.4367127
2.0985818 0.81289715 4.0122676 1.0486859 3.587121 1.189826 1.5774773 2.4935985
00000000: ef3f 203f c877 443f 6f77 a43f 4019 a540
00000010: 8c29 4b3f 8f36 3a3f 4eac 3240 88d4 e63f
00000020: 3fbd 5d3f 4e9e 3440 f35b b13f 6964 863f
00000030: 1a89 0040 2d3d 233f ecb4 c53f 02a9 533f
00000040: e71a 8340 7bdb 833f cf66 7c40 9dd8 953f
00000050: 4a70 433f 3cf3 6c40 14c6 e93f cb1d be3f
00000060: 5877 743f d699 823f 0b40 ba3f 5a67 733f
00000070: 7638 533f 9812 3940 2a6d b33f 44ad 1e40
00000080: fba9 2840 3341 393f 18b4 c53f af29 673f
00000090: 8d83 2640 1599 333f 9625 2240 086d c53f
000000a0: f49d 6c3f b5e8 613f 84df 4e40 739c b23f
000000b0: d8e9 5840 eecc 6d3f 2d38 4840 4fb5 0840
000000c0: ebc5 8f40 55b2 0b40 a8d6 853f 7e3b f73f
000000d0: 9d90 4140 cf05 3040 fb83 533f 1ff7 0840
000000e0: 1017 b43f 4ae4 ea3f d311 863f 4ca5 2140
000000f0: aef3 a640 99ab 8740 f7ba 2a3f 17aa 373f
00000100: 49d6 4e3f 5430 0040 f261 643f 3b57 8d40
00000110: d61c 2240 3dae 893f 9ef1 a540 5383 7c3f
00000120: 5725 463f 8b41 1440 d12e 1b40 5d47 663f
00000130: a2a2 673f 45d3 273f 31c1 5b3f f61b 3340
00000140: ff9a 413f a326 423f a037 9c3f 2016 fe3f
00000150: 3152 f43f 17d0 2c40 f171 1040 1a82 8e40
00000160: a208 6240 85ce 9540 4510 3d3f 00a5 6a40
00000170: 2779 5840 0b8c 8a3f bb19 4a3f de34 7f3f
00000180: 4155 0240 7db8 0f40 7407 2140 649b 6e3f
00000190: d59f 8e3f ef7e 543f 31e6 ca40 dea3 5a40
000001a0: ad33 2a40 1cc3 5a3f 82ae 5440 bd1d 3940
000001b0: 146c 6140 c6ad a53f ddd4 543f 074f ae3f
000001c0: 21d9 5640 88e7 463f 695e 323f b225 3f40
000001d0: 2db6 3b40 169f 4b3f f43d 7340 1af3 5b40
000001e0: 2a4f 0640 071a 503f 7f64 8040 573b 863f
000001f0: 6493 6540 384c 983f c7ea c93f 1e97 1f40

bn2.weight f4 [64]
0.9731221 1.055278 1.0479671 1.022095 1.0555711 1.0076624 0.9548133 1.0038999
0.9918813 0.97786057 1.0577542 1.0593956 0.9658272 1.060033 0.9754685 1.0597992
0.9676859 1.0456016 1.0414472 1.055602 1.0490849 0.9961107 1.0594951 0.9870284
1.0479637 0.9941941 0.97155195 1.0425388 0.9701153 1.0539747 0.96479 1.0588439
1.0603017 1.0568298 1.0403563 0.9511242 1.0434117 0.9529574 0.97000486 0.9789621
1.059218 0.9639386 1.0540507 1.0451053 1.0024049 1.0535004 1.007661 1.0053778
1.0576144 0.9694982 1.0427483 1.0574418 0.97183174 0.95475787 1.0564777 1.0577602
1.0389545 1.0564622 1.0398253 1.0100144 0.9951453 1.0580928 1.0581062 0.963605
00000000: 881e 793f 5913 873f c923 863f 02d4 823f
00000010: f41c 873f 15fb 803f a56e 743f cb7f 803f
00000020: efeb 7d3f 1255 7a3f 7d64 873f 469a 873f
00000030: 7440 773f 29af 873f 4eb8 793f 80a7 873f
00000040: 43ba 773f 46d6 853f 244e 853f f71d 873f
00000050: 6a48 863f 1c01 7f3f 899d 873f e5ad 7c3f
00000060: ad23 863f 8183 7e3f a1b7 783f e971 853f
00000070: 7a59 783f a5e8 863f 7afc 763f 3288 873f
00000080: f7b7 873f 3346 873f 652a 853f e07c 733f
00000090: 848e 853f 04f5 733f 3d52 783f 439d 7a3f
000000a0: 7594 873f aec4 763f 22eb 863f 03c6 853f
000000b0: ce4e 803f 1ad9 863f 09fb 803f 38b0 803f
000000c0: e95f 873f 0931 783f c778 853f 415a 873f
000000d0: f7c9 783f 036b 743f a93a 873f b064 873f
000000e0: 76fc 843f 273a 873f ff18 853f 2748 813f
000000f0: d8c1 7e3f 966f 873f 0670 873f d1ae 763f

bn2.bias f4 [64]
-0.031858254 0.05873519 -0.010706073 0.058868546 0.05578188 0.017367147 -0.043323144 0.054862518
-0.008275362 0.0090146605 0.058244817 0.05889224 -0.03556008 0.059901983 -0.029871076 0.059756532
-0.034016155 0.059688963 0.013753425 0.055178795 -0.020306034 0.026183069 0.05906966 0.016602585
0.05907488 0.028168902 -0.03231161 0.022375539 -0.032806817 0.054101586 -0.034752168 0.058626577
0.012250661 0.05523324 0.049106695 -0.037147474 0.054490525 -0.044667285 -0.032166485 -0.029411145
0.0591949 -0.038899336 0.060161646 -0.0131442025 0.055197474 -0.019487858 0.05720173 0.059637677
0.057162218 -0.0321838 0.008663724 0.058811918 -0.03176114 -0.035940092 0.05624782 0.05852235
0.0436995 0.05784665 0.04403756 0.058073875 0.020864362 0.059330016 0.029643407 -0.031493507
00000000: cd7d 02bd 5094 703d 8668 2fbc 2520 713d
00000010: 8a7b 643d 8c45 8e3c 9c73 31bd 85b7 603d
00000020: 6295 07bc 3ab2 133c 1e92 6e3d fd38 713d
00000030: 72a7 11bd c85b 753d 30b4 f4bc 44c3 743d
00000040: 8654 0bbd 6a7c 743d 0c56 613c 2903 623d
00000050: d758 a6bc e07d d63c 07f3 713d 2502 883c
00000060: 80f8 713d 78c2 e63c 2e59 04bd e84c b73c
00000070: 7160 06bd a099 5d3d 4a58 0ebd 6c22 703d
00000080: ffb6 483c 403c 623d 1a24 493d f327 18bd
00000090: 7531 5f3d 0bf5 36bd 01c1 03bd a4ef f0bc
000000a0: 5a76 723d e954 1fbd 0f6c 763d c85a 57bc
000000b0: bf16 623d 00a5 9fbc 5c4c 6a3d a346 743d
000000c0: ee22 6a3d 29d3 03bd 4bf2 0d3c c4e4 703d
000000d0: f817 02bd eb35 13bd 1d64 663d 22b5 6f3d
000000e0: 3ffe 323d 9cf0 6c3d ba60 343d dfde 6d3d
000000f0: bdeb aa3c 0804 733d bbd6 f23c 56ff 00bd

bn2.running_mean f4 [64]
0.10376303 -0.57527804 0.69615376 -0.24009447 -0.48797515 -0.0010807598 0.2824993 -0.39422467
-0.79282814 -0.25765595 -0.79580253 -0.3338264 0.13730626 -0.73894566 0.400108 -0.633304
0.30567333 0.63921577 0.52077055 -0.7468233 0.4468777 -0.21639778 -0.43747646 -0.2438912
0.6637394 -0.5567054 0.11360495 0.4879155 0.076912634 -0.3564024 0.14277452 -0.5285318
0.48271835 0.46501225 0.41542122 0.1183129 0.4338402 0.24172448 0.2636785 0.42443076
-0.42645472 -0.010723257 0.4681952 0.60380185 -0.407169 0.3124204 -0.30346808 -0.4757882
-0.6622017 0.33114204 0.43695563 -0.2830746 0.06070229 -0.11652862 -0.44208413 -0.44679126
0.6632704 -0.36988196 0.35024887 -0.6391305 -0.6322997 -0.45651147 0.28199318 -0.09682942
00000000: b681 d43d 6c45 13bf 2237 323f 53db 75be
00000010: e1d7 f9be 48a8 8dba c0a3 903e d1d7 c9be
00000020: c9f6 4abf 7beb 83be b7b9 4bbf 4beb aabe
00000030: 039a 0c3e 8b2b 3dbf f5da cc3e 3620 22bf
00000040: 3781 9c3e a5a3 233f 3851 053f d02f 3fbf
00000050: 27cd e43e 6197 5dbe eafc dfbe 9dbe 79be
00000060: d3ea 293f 3f84 0ebf b6a9 e83d 0fd0 f93e
00000070: 5f84 9d3d 607a b6be 7c33 123e dc4d 07bf
00000080: dc26 f73e 1616 ee3e 17b2 d43e 094e f23d
00000090: 4d20 de3e 9f86 773e de00 873e fd4e d93e
000000a0: 4658 dabe 9ab0 2fbc 48b7 ef3e c292 1a3f
000000b0: 7578 d0be 91f5 9f3e 2b60 9bbe 839a f3be
000000c0: 0d86 29bf 738b a93e a6b8 df3e 27ef 90be
000000d0: f7a2 783d 8fa6 eebd da58 e2be d3c1 e4be
000000e0: 17cc 293f 2b61 bdbe d253 b33e 0e9e 23bf
000000f0: 65de 21bf dfbb e9be 6961 903e 814e c6bd

bn2.running_var f4 [64]
3.2734957 4.89585 4.8607183 3.760042 6.414016 2.1556897 1.8358765 3.3404176
1.894281 3.4047346 5.661515 5.635168 2.6122155 5.794259 3.9887848 4.688977
2.790072 4.30116 4.792883 5.394431 4.7688947 4.1155396 5.096424 3.3804145
4.7691493 4.3992896 3.9539108 4.6839557 3.4878025 3.3847344 2.9097981 5.7220297
4.281122 3.318243 5.2354813 2.3899827 3.1428967 1.1312371 3.1259596 4.6463084
5.666052 2.3810754 4.5443616 4.8769784 3.1643386 4.8531227 3.3123436 3.6828651
5.7969723 3.7046046 3.916339 4.445435 3.6095183 2.324188 5.8901734 6.015596
6.0105104 4.7345724 4.056209 3.8369322 3.555571 4.0748324 4.496239 2.6330829
00000000: f480 5140 ceaa 9c40 018b 9b40 87a4 7040
00000010: 9e3f cd40 d2f6 0940 00fe ea3f 67c9 5540
00000020: cd77 f23f 2ce7 5940 222b b540 4c53 b440
00000030: 8a2e 2740 926a b940 4048 7f40 190c 9640
00000040: 8a90 3240 1aa3 8940 4c5f 9940 2e9f ac40
00000050: c99a 9840 80b2 8340 e815 a340 b658 5840
00000060: df9c 9840 fbc6 8c40 e00c 7d40 f7e2 9540
00000070: 2838 5f40 7d9f 5840 223a 3a40 de1a b740
00000080: f4fe 8840 185e 5440 1089 a740 7af5 1840
00000090: 3825 4940 61cc 903f b90f 4840 8fae 9440
000000a0: 4c50 b540 8a63 1840 696b 9140 3510 9c40
000000b0: 8684 4a40 c84c 9b40 70fd 5340 10b4 6b40
000000c0: cc80 b940 3e18 6d40 4ca5 7a40 0141 8e40
000000d0: 5902 6740 7fbf 1440 4d7c bc40 c37f c040
000000e0: 1a56 c040 9e81 9740 77cc 8140 4c90 7540
000000f0: 7a8e 6340 0765 8240 31e1 8f40 6e84 2840
